A2C/a2c_cartpole.pth (torch, 256490 bytes, 21 tensors)

shared_net.0.weight f4 [128, 4]
0.36837056 0.4134192 -0.34284186 0.42448884 -0.3931013 0.08521833 -0.19626638 0.4482076
0.4468349 -0.29707134 0.8703912 0.17931032 0.5862273 0.14371328 0.7769378 0.17903203
0.24318592 0.01298555 -0.28156623 0.108811654 -0.4655779 -0.0918337 -0.25513843 0.4638725
-0.22490904 -0.1822105 -0.17478411 -0.32402515 0.0748369 -0.6048459 0.6406779 -0.3500756
0.34975404 0.19042191 0.44187456 0.3784464 -0.0054067415 0.25233737 0.05890336 -0.06985927
0.1442958 0.07582599 0.73394054 0.45694697 0.23521258 -0.22899498 0.25975806 0.057184555
0.27834314 -0.32238412 -0.5558053 -0.2109837 -0.51092124 0.31765738 -0.5803276 0.28751776
0.13780867 -0.14305034 0.3961211 -0.26574865 0.12790388 -0.3023637 0.10210386 -0.19656852
0.14866391 -0.2115821 0.40417215 -0.23835528 -0.3452736 -0.2741619 0.67419994 0.12222238
0.42364565 -0.52105093 -0.54451483 -0.274481 -0.5898534 0.3785531 0.45269403 0.52087706
-0.44608778 -0.31225413 0.050931185 -0.26568615 0.27660626 -0.18403074 0.2565391 -0.37103543
-0.24182731 0.123320125 0.06566879 -0.12889771 0.5142086 0.15972143 -0.52247304 -0.26210058
0.8340837 -0.31717318 -0.636337 -0.6550536 -0.28399622 0.16012342 0.19682288 -0.31972876
-0.24772532 -0.33152312 -1.2469704 -0.40265778 -0.35990036 -0.30594546 0.5241766 0.06121374
-0.13887294 -0.5030042 -0.8476523 -0.33093947 0.088660695 -0.60988605 -0.07187642 -0.12683214
-0.018196879 -0.3656794 -0.6776289 -0.42474297 -0.25011033 -0.40535223 -0.10941501 -0.29360864
0.28472075 -0.13224149 0.3966902 0.120584965 -0.43633333 0.39149508 0.055857886 -0.19825245
-0.32173944 -0.51689816 0.18851775 -0.12345146 0.22171502 -0.40825975 0.30869743 -0.39872676
-0.08102526 0.100317806 0.24974418 0.38773695 0.25849524 -0.63387305 0.1840084 0.021027995
0.22152133 -0.42564645 -0.15470591 -0.52989584 0.13296445 0.0035129036 0.17292878 -0.17095073
0.734468 -0.06251944 -0.20725954 -0.5326229 0.1436783 -0.1252586 -0.2699824 0.43744874
-0.08124449 -0.27101535 -0.1719481 0.017772188 0.3547553 -0.08052722 -0.14795354 -0.3106557
-0.36154178 0.10325399 0.55562425 -0.400239 -0.01370846 0.13425404 0.1632191 -0.119288504
0.08194323 0.12681065 0.14080748 -0.04964781 -0.10471033 0.05312287 -0.1457483 -0.1764449
0.09420764 0.23569012 -0.090190485 -0.023372961 0.030341312 -0.030032486 0.07430475 0.1142917
-0.6134892 0.028627405 0.555627 0.19729039 -0.043554448 -0.44265646 -1.041817 -0.60654116
-0.10767082 0.18532935 0.29587877 0.21517958 -0.6399636 -0.21965952 0.023993004 0.5694657
0.07232875 -0.12948537 0.20685762 -0.19044077 -0.14571191 0.35770524 -0.58331084 -0.2400267
-0.72363365 0.16960505 -0.5892137 -0.08722357 -0.4453466 -0.44909516 -0.47806132 0.41399056
0.5079722 0.53246546 0.82522947 0.54957706 -0.036925077 -0.51162994 -1.1838148 -0.6564713
-0.11044118 -0.37760785 -0.7313322 -0.43016848 -0.01975807 -0.37700704 -0.2928507 0.20119998
-0.1819368 0.16577674 -0.14724787 -0.26975363 -0.03298315 -0.43134552 -0.83971715 -0.5377174
00000000: 119b bc3e aeab d33e f888 afbe 9a56 d93e
00000010: 9344 c9be f386 ae3d 0efa 48be 777b e53e
00000020: 8bc7 e43e bc19 98be f5d1 5e3f 209d 373e
00000030: fe12 163f 9329 133e 65e5 463f 2c54 373e
00000040: bb05 793e 58c1 543c 7329 90be a5d8 de3d
00000050: 3a60 eebe 4f13 bcbd 81a1 82be b280 ed3e
00000060: 8e4e 66be 6495 3abe 9bfa 32be a0e6 a5be
00000070: 1744 993d 2ed7 1abf 7803 243f 1c3d b3be
00000080: f612 b33e f6fd 423e 623d e23e bac3 c13e
00000090: 092b b1bb 5d32 813e a644 713d 6012 8fbd
000000a0: 47c2 133e a84a 9b3d 87e3 3b3f f4f4 e93e
000000b0: 91db 703e a97d 6abe 02ff 843e 5a3a 6a3d
000000c0: fe82 8e3e 880f a5be 4249 0ebf 1c0c 58be
000000d0: bccb 02bf fda3 a23e 5990 14bf 8735 933e
000000e0: b71d 0d3e ca7b 12be 63d0 ca3e 3510 88be
000000f0: 3cf9 023e 6acf 9abe d41b d13d 4249 49be
00000100: 5a3b 183e faa8 58be a7ef ce3e 6813 74be
00000110: b4c7 b0be f35e 8cbe 5e98 2c3f ba4f fa3d
00000120: 15e8 d83e 9863 05bf 5365 0bbf c688 8cbe
00000130: a200 17bf b6d1 c13e 83c7 e73e 3358 053f
00000140: 9e65 e4be c6df 9fbe 389d 503d 0408 88be
00000150: 569f 8d3e 8e72 3cbe 1859 833e 5bf8 bdbe
00000160: 94a1 77be 438f fc3d 5c7d 863d c3fd 03be
00000170: 2da3 033f 048e 233e cbc0 05bf 0c32 86be
00000180: 8286 553f 8664 a2be fbe6 22bf 98b1 27bf
00000190: f467 91be 65f7 233e f08b 493e 7db3 a3be
000001a0: b5ab 7dbe 66bd a9be ba9c 9fbf 2929 cebe
000001b0: dc44 b8be e2a4 9cbe 7030 063f 42bb 7a3d
000001c0: b534 0ebe e2c4 00bf beff 58bf e670 a9be
000001d0: bd93 b53d 7e21 1cbf f233 93bd 49e0 01be
000001e0: 9f11 95bc 553a bbbe 1679 2dbf e977 d9be
000001f0: 760e 80be 548a cfbe fa14 e0bd df53 96be
00000200: ebc6 913e 506a 07be fa1a cb3e 40f5 f63d
00000210: 1567 dfbe 0b72 c83e 3dcb 643d b102 4bbe
00000220: 08bb a4be 7053 04bf cc0a 413e 1ed4 fcbd
00000230: 4309 633e 6c07 d1be 970d 9e3e ea25 ccbe
00000240: 92f0 a5bd 6c73 cd3d f0bc 7f3e 7585 c63e
00000250: 7d59 843e 8145 22bf b36c 3c3e e742 ac3c
00000260: 7dd6 623e 55ee d9be 3a6b 1ebe 41a7 07bf
00000270: d527 083e be38 663b 3e14 313e b50d 2fbe
00000280: 1806 3c3f 310a 80bd d83b 54be f959 08bf
00000290: 6720 133e ca43 00be 223b 8abe 48f9 df3e
000002a0: 8363 a6bd 86c2 8abe 2a13 30be fb96 913c
000002b0: 7da2 b53e 75eb a4bd 2281 17be 440e 9fbe
000002c0: 011c b9be d476 d33d 643d 0e3f 20ec ccbe
000002d0: 7399 60bc e479 093e e822 273e 884d f4bd
000002e0: dad1 a73d a7da 013e d62f 103e 815b 4bbd
000002f0: 5f72 d6bd 5e97 593d 0b3f 15be f9ad 34be
00000300: efef c03d c058 713e cab5 b8bd a778 bfbc
00000310: 588e f83c b006 f6bc 172d 983d c411 ea3d
00000320: a10d 1dbf 0584 ea3c 923d 0e3f 7e06 4a3e
00000330: 2666 32bd dea3 e2be 425a 85bf 4846 1bbf
00000340: 8582 dcbd fac6 3d3e 6c7d 973e 0958 5c3e
00000350: a8d4 23bf 6dee 60be fa8c c43c 81c8 113f
00000360: 1821 943d d097 04be 7cd2 533e e802 43be
00000370: 8135 15be 2425 b73e dc53 15bf 8fc9 75be
00000380: 0e40 39bf f2ac 2d3e b6d6 16bf 45a2 b2bd
00000390: 7804 e4be cdef e5be 74c4 f4be 92f6 d33e
000003a0: 770a 023f a84f 083f 3d42 533f 15b1 0c3f
000003b0: c03e 17bd 2efa 02bf 3e87 97bf 810e 28bf
000003c0: fc2e e2bd d155 c1be 9638 3bbf 0b3f dcbe
000003d0: addb a1bc 1107 c1be 87f0 95be 5e07 4e3e
000003e0: a44d 3abe 61c1 293e 25c8 16be 261d 8abe
000003f0: 5719 07bd 52d9 dcbe b4f7 56bf d9a7 09bf

shared_net.0.bias f4 [128]
0.3217154 -0.35856003 -0.19929786 -0.3443536 0.6889997 -0.5124874 0.6252726 0.21007359
-0.07984931 0.5967113 -0.06373485 0.5661065 0.59732366 -0.4984494 0.46926275 0.34571263
0.37857568 0.113930725 0.43915442 -0.12963073 -0.16167785 0.71151155 0.5870937 0.004140958
-0.22925718 0.33390146 -0.40491593 0.67042416 -0.25747728 0.19678262 -0.0421101 0.37848714
0.7328157 0.33301392 0.5094671 0.6347221 0.66263163 -0.0031025982 -0.070910044 0.5125235
-0.07669548 0.4714812 -0.133863 -0.38131 0.4428896 0.36176276 0.49360812 0.75208956
0.6063552 0.72746754 -0.10592264 -0.09125318 -0.38452926 -0.37441388 -0.44062418 -0.13970876
-0.45715037 -0.57411635 -0.12477358 -0.09790154 -0.19388579 0.4392686 0.69028735 -0.07630776
-0.13536565 0.5336679 -0.15697001 -0.090222396 0.5800919 -0.40664867 0.3174152 0.7110416
0.37909195 0.3724003 -0.4237372 0.28971362 0.31204507 0.3883189 0.47482494 0.6400615
-0.30624658 0.3352608 -0.1808963 -0.52067685 -0.025723964 -0.16127144 0.58492625 -0.07932021
-0.11021615 0.49054033 -0.4360421 -0.14739537 -0.10590849 -0.18273228 -0.23617893 -0.08963112
0.6570881 0.7266881 0.6097823 -0.27348334 -0.22113319 0.68839216 0.46015316 0.20292954
0.3969016 -0.47737595 -0.056751847 0.7325218 -0.11448065 -0.101945005 -0.11265338 -0.25460172
0.30858824 -0.4092866 0.008561229 0.4842593 -0.43142027 0.31091237 -0.26340047 -0.2822226
0.43457744 0.6642277 -0.102044806 -0.13374472 -0.38814873 -0.31975666 -0.26655507 -0.082760945
00000000: e2b7 a43e 2e95 b7be bd14 4cbe 1d4f b0be
00000010: 4962 303f 6032 03bf dd11 203f 881d 573e
00000020: 0988 a3bd 12c2 183f 6b87 82bd 5bec 103f
00000030: 34ea 183f c234 ffbe 3543 f03e 3f01 b13e
00000040: acd4 c13e 8354 e93d d9d8 e03e ebbd 04be
00000050: e18e 25be 9f25 363f c64b 163f e0b0 873b
00000060: 65c2 6abe 22f5 aa3e 2451 cfbe eba0 2b3f
00000070: 10d4 83be 6281 493e a47b 2cbd 11c9 c13e
00000080: cf99 3b3f cd80 aa3e 706c 023f 267d 223f
00000090: 3aa2 293f f654 4bbb 4939 91bd bd34 033f
000000a0: 8512 9dbd fc65 f13e 6213 09be 103b c3be
000000b0: 6dc2 e23e f838 b93e 34ba fc3e f188 403f
000000c0: 183a 1b3f 503b 3a3f f8ed d8bd f2e2 babd
000000d0: 05e1 c4be 2db3 bfbe 7e99 e1be d00f 0fbe
000000e0: 9d0f eabe 4af9 12bf 4a89 ffbd 9a80 c8bd
000000f0: ff89 46be d0e7 e03e acb6 303f 3e47 9cbd
00000100: 4b9d 0abe 769e 083f bfbc 20be 85c6 b8bd
00000110: e780 143f 4134 d0be 3f84 a23e d306 363f
00000120: 5718 c23e 41ab be3e 15f4 d8be 5855 943e
00000130: 5fc4 9f3e bcd1 c63e 411c f33e 12db 233f
00000140: 5acc 9cbe 4ea7 ab3e e13c 39be 144b 05bf
00000150: 10bb d2bc 5724 25be babd 153f a272 a2bd
00000160: 01b9 e1bd 1a28 fb3e e940 dfbe d0ee 16be
00000170: 8de6 d8bd 2c1e 3bbe e4d8 71be 8590 b7bd
00000180: ed36 283f 3b08 3a3f b11a 1c3f 0206 8cbe
00000190: bd70 62be 783a 303f 3299 eb3e c3cc 4f3e
000001a0: b036 cb3e 9f6a f4be a074 68bd 8c86 3b3f
000001b0: d574 eabd 8bc8 d0bd d1b6 e6bd 285b 82be
000001c0: 47ff 9d3e 038e d1be 6644 0c3c d6f0 f73e
000001d0: 1ee3 dcbe e82f 9f3e 6ddc 86be 7b7f 90be
000001e0: ef80 de3e d40a 2a3f defc d0bd 60f4 08be
000001f0: 6ebb c6be 25b7 a3be e879 88be 927e a9bd

shared_net.2.weight f4 [128, 128]
0.009409341 -0.09169607 0.06861845 0.05545404 -0.09521444 -0.050444826 0.021380467 -0.018160233
-0.018241998 -0.039908722 0.062345114 -0.058087915 0.06459865 0.005703016 0.017767984 0.060311425
-0.014563358 -0.0589907 -0.014295421 0.063136 -0.074450344 0.0147179 -0.09242909 0.046342198
0.032656644 0.0037469813 0.03793567 -0.008577436 0.048909944 -0.06997003 -0.012980049 0.03921036
0.0793433 0.045024265 -0.07295482 0.059524037 -0.028385518 -0.018872188 -0.080337025 -0.013913591
0.062519446 0.003651639 -0.06010302 0.027207002 -0.028341226 0.080698036 -0.07671707 -0.03605105
-0.08534545 -0.04348474 0.019202584 0.08508392 0.0074383006 0.07801846 0.017293368 0.05104745
0.0708576 0.06526826 -0.049473055 0.081263356 0.053542607 -0.050015926 -0.042179216 -0.074135385
0.0135432305 -0.080352485 0.03733742 0.027912835 -0.07679199 0.024085902 -0.012683738 0.0316981
0.050716314 -0.096575156 0.08106086 0.07412618 0.03516828 -0.0894382 -0.040239148 -0.03210878
-0.031209946 0.04984423 0.023656875 0.0700194 -0.033103485 0.029746192 0.022879649 -0.08224364
-0.08573845 -0.05452871 0.060506035 -0.08321406 -0.085582934 0.049515203 0.047688074 0.06403621
-0.06672779 -0.07325786 0.045342043 0.076865174 0.05288618 0.005137775 0.029130563 0.08389174
-0.057028543 -0.048571315 0.061824728 -0.06907125 -0.056836184 0.05589482 0.02278779 0.019952025
-0.03746255 -0.0012198036 0.08089591 -0.05305246 0.00069492776 0.033467423 -0.06902059 0.077222094
-0.052854706 -0.029895145 -0.02391526 -0.057599053 -0.08673236 0.041201957 0.023482496 -0.08278459
0.054547843 -0.15396205 -0.08859772 -0.26719433 0.12819758 -0.23905358 0.17720045 0.1200435
-0.13508177 0.17755716 -0.068500444 0.16172679 0.20056877 -0.3111571 0.20363624 0.2338895
0.14445125 -0.020218156 0.22513509 -0.16204435 -0.16292532 0.26690412 0.1502155 0.043453854
-0.23831658 0.011374982 -0.41905355 0.08437045 -0.2165994 0.15169771 -0.31049496 0.2660992
0.15671036 0.14163171 0.088695906 0.24418053 0.13286154 0.10742809 -0.19802193 0.21221484
-0.016380886 0.07362232 -0.07247979 -0.19141236 0.16582601 0.17318706 0.21451066 0.16979687
0.20526963 0.24941184 -0.04002134 -0.30799794 0.035096634 0.0032378556 -0.05022879 -0.11343694
-0.42056474 -0.10500347 -0.25211436 -0.4747425 -0.27509135 0.1044814 0.22300632 -0.27209705
-0.13142505 0.1421025 -0.11561566 -0.24127167 0.093694635 -0.13634859 0.22482108 0.109014705
0.21216168 0.09166863 -0.2938774 0.029727079 0.1323729 0.09561737 0.182142 0.12743601
-0.11158141 0.1913321 -0.13004844 -0.13661306 -0.12985086 -0.25309223 0.14841641 0.006759923
-0.1663365 0.1622736 -0.12483539 -0.018154778 -0.091042146 -0.53506315 0.030761898 -0.07554167
0.12704714 0.25988767 0.23350735 -0.16036543 -0.03968585 0.114095904 0.17833306 0.123161376
0.1220297 -0.19929251 -0.1194781 0.15903999 -0.19251597 -0.1494947 -0.36910284 -0.050924473
0.08982789 -0.16505739 0.017469373 0.22290161 -0.11605656 0.18135652 -0.023996498 -0.08157212
0.09746399 0.20337373 -0.107021645 -0.13240492 -0.08378289 -0.07858503 -0.08405063 -0.11253885
00000000: a329 1a3c 26cb bbbd d487 8c3d c723 633d
00000010: caff c2bd 3c9f 4ebd 1726 af3c c5c4 94bc
00000020: 3e70 95bc 5477 23bd 975d 7f3d 98ed 6dbd
00000030: 4c4c 843d 5ee0 ba3b 2a8e 913c 1d09 773d
00000040: 279b 6ebc 3ba0 71bd 5737 6abc 724d 813d
00000050: 6c79 98bd 5923 713c 764b bdbd 51d1 3d3d
00000060: f9c2 053d ea8f 753b 6f62 1b3d 6088 0cbc
00000070: cb55 483d 724c 8fbd 45aa 54bc 0b9b 203d
00000080: bd7e a23d 5d6b 383d 5669 95bd 7acf 733d
00000090: bf88 e8bc d999 9abc bd87 a4bd d5f5 63bc
000000a0: 320a 803d 5650 6f3b 962e 76bd 38e1 de3c
000000b0: dc2b e8bc 0345 a53d d71d 9dbd 44aa 13bd
000000c0: 98c9 aebd 0e1d 32bd bd4e 9d3c 7a40 ae3d
000000d0: fdbc f33b 24c8 9f3d d2aa 8d3c 2217 513d
000000e0: ca1d 913d 5eab 853d 42a4 4abd 676d a63d
000000f0: 7e4f 5b3d 80dd 4cbd 1dc4 2cbd 4bd4 97bd
00000100: 6de4 5d3c d88f a4bd 1fef 183d 75a9 e43c
00000110: 1e45 9dbd cc4f c53c 74cf 4fbc ded5 013d
00000120: e9bb 4f3d 32c9 c5bd 3c03 a63d 77cf 973d
00000130: 9d0c 103d 602b b7bd ced1 24bd 7f84 03bd
00000140: 00ac ffbc 7729 4c3d 10cc c13c 5566 8f3d
00000150: 8597 07bd 49ae f33c 1a6e bb3c 5b6f a8bd
00000160: a497 afbd 7f59 5fbd 2dd5 773d 226c aabd
00000170: 1b46 afbd 74d0 4a3d 9254 433d 6b25 833d
00000180: 94a8 88bd 3808 96bd 94b8 393d 7d6b 9d3d
00000190: 2e9f 583d c85a a83b 38a3 ee3c 6fcf ab3d
000001a0: c396 69bd b7f2 46bd ed3b 7d3d 3a75 8dbd
000001b0: 0fcd 68bd f7f1 643d 76ad ba3c 6e72 a33c
000001c0: 5572 19bd d1e1 9fba c1ac a53d 894d 59bd
000001d0: d02b 363a 2315 093d ab5a 8dbd 9e26 9e3d
000001e0: 2d7e 58bd aae6 f4bc efe9 c3bc fcec 6bbd
000001f0: bca0 b1bd 62c3 283d 5d5e c03c f88a a9bd
00000200: 8f6d 5f3d 3aa8 1dbe b972 b5bd b2cd 88be
00000210: 3a46 033e 76ca 74be 0974 353e 5ed9 f53d
00000220: e052 0abe 8bd1 353e f649 8cbd b59b 253e
00000230: e661 4d3e fc4f 9fbe 0586 503e bb80 6f3e
00000240: 07eb 133e 8ca0 a5bc d089 663e f4ee 25be
00000250: e5d5 26be a8a7 883e 18d2 193e abfc 313d
00000260: 4309 74be 225e 3a3c 308e d6be 6aca ac3d
00000270: 3ccc 5dbe a556 1b3e 32f9 9ebe 283e 883e
00000280: ae78 203e e707 113e 33a6 b53d 760a 7a3e
00000290: db0c 083e 4203 dc3d 43c6 4abe d94e 593e
000002a0: 3531 86bc 4dc7 963d 4970 94bd 9a01 44be
000002b0: 4bce 293e f357 313e afa8 5b3e 3bdf 2d3e
000002c0: 3432 523e d165 7f3e 6bed 23bd e8b1 9dbe
000002d0: 7dc1 0f3d 3432 543b b4bc 4dbd a051 e8bd
000002e0: 4354 d7be 0f0c d7bd 2215 81be 7311 f3be
000002f0: c6d8 8cbe 58fa d53d c55b 643e 4e50 8bbe
00000300: 4a94 06be 5183 113e e7c7 ecbd ec0f 77be
00000310: f9e2 bf3d f79e 0bbe 7f37 663e 1a43 df3d
00000320: e940 593e c3bc bb3d 1977 96be 3486 f33c
00000330: c38c 073e 0ad3 c33d 6f83 3a3e 967e 023e
00000340: cb84 e4bd 90ec 433e 6b2b 05be 4be4 0bbe
00000350: a0f7 04be 4e95 81be 79fa 173e 5882 dd3b
00000360: 1e54 2abe 0d2b 263e b2a9 ffbd 54b9 94bc
00000370: 4e74 babd e6f9 08bf 6000 fc3c 97b5 9abd
00000380: a518 023e ff0f 853e 8d1c 6f3e d636 24be
00000390: a18d 22bd 1dab e93d f19c 363e 083c fc3d
000003a0: b5ea f93d 5613 4cbe efb0 f4bd 61db 223e
000003b0: e822 45be 2315 19be 0cfb bcbe 2e96 50bd
000003c0: aff7 b73d ce04 29be ee1b 8f3c 5240 643e
000003d0: 10af edbd 86b5 393e 4e94 c4bc 490f a7bd
000003e0: 339b c73d 3441 503e 2a2e dbbd 2895 07be
000003f0: 5d96 abbd 30f1 a0bd bd22 acbd c57a e6bd

shared_net.2.bias f4 [128]
-0.02175941 0.1715458 0.12869479 -0.0770144 0.22090562 0.11781369 -0.005987414 0.2524399
0.020546453 0.02456265 -0.028199427 0.20146045 -0.09392989 -0.049772784 0.007365483 0.017813435
0.033285014 -0.13723455 0.22193713 0.14518344 -0.080172084 -0.005472059 -0.079918735 0.009349008
-0.08174916 0.037970595 0.034327365 0.006480791 0.1923482 0.021852905 -0.17322454 0.1373036
-0.07797625 -0.069118574 0.0027983726 0.061199587 0.25760812 -0.04620141 0.200469 -0.026260559
0.20112732 0.11146956 -0.0017269521 0.21320356 0.18024483 0.26342243 0.021683611 -0.13650382
0.25133148 0.120631054 -0.07407672 0.021387974 -0.10124557 0.062465318 0.26125073 0.18531525
0.07210835 -0.07367653 0.20259792 3.63692e-06 0.24087995 0.07511635 0.03542817 0.1331474
0.25451407 0.22857541 0.16481183 0.017089529 0.014080957 0.19341742 -0.060710076 -0.009817763
-0.03432681 0.007669744 -0.005814442 -0.07301933 0.12464373 0.2005617 -0.08125247 0.17653053
0.058087878 -0.04505676 0.04354752 0.22402304 0.23536341 -0.0841865 0.2751532 0.14640069
-0.07692369 -0.059215847 0.07577826 0.038315054 0.018335888 0.040991716 -0.098032266 -0.089669004
-0.049926396 -0.041766517 0.03629317 -0.069708675 0.25468853 0.14148846 0.027807219 0.24967718
0.13065383 0.065726414 0.21141402 0.12175528 0.14429541 0.2725522 -0.021771334 -0.07580957
0.20801659 -0.04726558 0.12145671 0.24187109 0.006447768 0.2255795 -0.053272173 0.02717487
0.15789592 0.22859474 0.21761523 0.2460042 0.19160427 0.2312188 0.046624415 0.20032291
00000000: ca40 b2bc b4a9 2f3e 91c8 033e bab9 9dbd
00000010: 1535 623e 4e48 f13d 1232 c4bb cd3f 813e
00000020: 0951 a83c 9c37 c93c 7c02 e7bc a64b 4e3e
00000030: 505e c0bd 8cde 4bbd 265a f13b 7bed 913c
00000040: de55 083d 3787 0cbe 7d43 633e f8aa 143e
00000050: 4331 a4bd f54e b3bb 6fac a3bd 952c 193c
00000060: 1b6c a7bd 0e87 1b3d da9a 0c3d d15c d43b
00000070: edf6 443e dd04 b33c c661 31be 5199 0c3e
00000080: 03b2 9fbd 0a8e 8dbd e764 373b 6bac 7a3d
00000090: 36e5 833e b13d 3dbd bf47 4d3e 6220 d7bc
000000a0: 52f4 4d3e 274a e43d e65a e2ba 0952 5a3e
000000b0: 1a92 383e 4edf 863e d4a1 b13c a8c7 0bbe
000000c0: 85ae 803e 6a0d f73d 89b5 97bd d535 af3c
000000d0: d659 cfbd a2db 7f3d a8c2 853e 48c3 3d3e
000000e0: 8bad 933d b8e3 96bd d475 4f3e cf11 7436
000000f0: 3ca9 763e 9ad6 993d 211d 113d cb57 083e
00000100: ab4f 823e ac0f 6a3e 6fc4 283e 57ff 8b3c
00000110: d0b3 663c 370f 463e 21ab 78bd afda 20bc
00000120: 459a 0cbd 7a52 fb3b 1387 bebb 298b 95bd
00000130: 3645 ff3d 0c60 4d3e b267 a6bd 6bc4 343e
00000140: 8eed 6d3d 708d 38bd e25e 323d 4c66 653e
00000150: 1b03 713e f969 acbd e1e0 8c3e 10ea 153e
00000160: 2b8a 9dbd 518c 72bd a231 9b3d 3ff0 1c3d
00000170: 2535 963c eee6 273d 24c5 c8bd 62a4 b7bd
00000180: 9f7f 4cbd 5e13 2bbd 26a8 143d 6cc3 8ebd
00000190: 8966 823e 5ae2 103e f7cb e33c 60ab 7f3e
000001a0: 1eca 053e 929b 863d eb7c 583e d55a f93d
000001b0: 2dc2 133e f68b 8b3e cc59 b2bc 0c42 9bbd
000001c0: 4d02 553e 8e99 41bd 4cbe f83d 0ead 773e
000001d0: cc47 d33b 50fe 663e ec33 5abd d59d de3c
000001e0: 78af 213e bd14 6a3e 87d6 5e3e 86e8 7b3e
000001f0: e933 443e 9fc4 6c3e 3ef9 3e3d 7321 4d3e

actor.weight f4 [2, 128]
0.0014112953 -0.04528663 0.017450359 -0.02609783 -0.09201503 -0.06425822 0.045989495 -0.08374242
-0.062369816 0.026764333 0.041800678 -0.072713174 -0.008339864 -0.05110366 0.040842284 0.056478776
0.036898915 0.4054418 -0.04704905 -0.02959654 0.032959737 -0.3305784 -0.05581641 -0.05062628
-0.066547036 0.039015785 0.039708287 -0.028679047 0.085469075 -0.06046802 0.22565322 0.016320726
-0.05818401 -0.19011141 -0.037116952 0.057406105 0.007672502 -0.050083227 0.09624573 0.2003959
-0.010401065 0.07930431 -0.1062777 0.03769664 -0.039328154 -0.0863524 0.030501142 0.018237375
-0.1004826 -0.035412263 0.06610389 0.045643497 -0.108839676 0.055657968 0.022798082 -0.08746689
0.024429917 0.073019505 -0.02540793 0.0016082919 0.054428734 -0.021870906 0.07953308 0.0868713
0.080543496 0.019256601 0.011025432 -0.075060174 -0.08101857 -0.030505296 -0.12208487 -0.0060140705
-0.0470402 -0.033625286 -0.054956872 -0.004945011 -0.014726505 0.09313594 -0.25694105 -0.08428738
-0.17172007 0.028221527 -0.080520764 0.04775333 0.09093129 0.074347 -0.081035346 -0.06100812
0.06707126 -0.04400136 -0.07296813 -0.06397244 0.032707088 -0.004243266 -0.050417904 0.069904506
-0.07798607 0.0077876323 0.038044743 0.031468652 0.057454817 0.16423093 0.047388513 -0.010265936
-0.008463464 0.51422566 0.09715984 0.028041793 -0.042940434 -0.012165035 0.03577042 -0.13416436
0.074231364 0.04229131 0.028457137 -0.03384109 -0.07663269 -0.046022516 -0.054673046 -0.037965108
0.059202768 -0.021567747 0.08934176 -0.071317844 -0.058446433 -0.089822195 0.03664364 -0.003156674
0.037647437 0.06397447 -0.009928354 -0.004050293 0.040371023 0.09789477 0.060775876 0.07302934
-0.047501106 -0.081698805 0.08154244 -0.036356207 0.04985396 -0.04094891 -0.033398088 0.02334765
0.07461271 -0.34011996 0.06818265 0.030022161 -0.023165157 0.37469527 0.04568458 0.071356185
0.006270206 0.06563303 -0.008065165 0.024400666 -0.08237395 0.054179564 -0.1614174 0.025852825
-0.0027697731 0.2936233 -0.07613581 -0.08125644 0.061721623 -0.078911245 -0.03341957 -0.26436728
-0.056373697 -0.03367892 0.022328075 -0.037506115 -0.07204695 -0.05667457 0.015466417 -0.06882199
0.09489394 -0.09253488 -0.08617346 -0.03385356 0.19288439 0.07024106 -0.016669333 -0.0028053601
0.0047667227 -0.0063677514 0.025433347 -0.049909517 0.028067697 0.013604926 0.055675223 -0.06523987
-0.02706505 0.04860584 0.07141731 0.14567973 -0.021437509 0.015687238 0.04233637 0.06806995
0.053041335 -0.07460221 0.037709244 0.027441012 0.066932835 -0.07696673 0.27794895 0.03060993
0.11828648 -0.02302459 0.063066974 0.0699887 -0.10058638 0.028084941 -0.019185223 -0.07999428
-0.026186226 0.03702433 0.06665762 0.016440732 0.04852434 -0.09188911 -0.04655012 -0.045072157
-0.04610867 -0.057224534 -0.057106562 -0.06303426 0.029425755 -0.2163798 0.0018238763 -0.010900626
0.026213566 -0.6464197 -0.11494912 -0.08784443 0.12217045 0.008319168 -0.07523094 0.014772598
-0.0029124515 -0.0314466 0.090410255 0.09404613 0.015401051 0.006857438 0.035071865 0.018760458
0.017835254 0.02226967 -0.07821615 0.05178915 0.049551867 0.07351366 0.03893786 0.11110184
00000000: 36fb b83a 797e 39bd 0ef4 8e3c 1ecb d5bc
00000010: 6072 bcbd d099 83bd 7b5f 3c3d 2581 abbd
00000020: 7e77 7fbd e040 db3c 3037 2b3d a5ea 94bd
00000030: eda3 08bc 1252 51bd 3d4a 273d 4a56 673d
00000040: 5123 173d 1196 cf3e 81b6 40bd 7174 f2bc
00000050: ca00 073d 9241 a9be bf9f 64bd 815d 4fbd
00000060: d049 88bd 04cf 1f3d 28a5 223d 52f0 eabc
00000070: 690a af3d 51ad 77bd a311 673e 0bb3 853c
00000080: 5b52 6ebd 91ac 42be f207 18bd aa22 6b3d
00000090: 9d69 fb3b 1224 4dbd 7b1c c53d 9534 4d3e
000000a0: 3b69 2abc 4c6a a23d 1fa8 d9bd cb67 1a3d
000000b0: 8f16 21bd 87d9 b0bd 88dd f93c 8c66 953c
000000c0: d2c9 cdbd 730c 11bd 7a61 873d adf4 3a3d
000000d0: 56e7 debd 9cf9 633d 0bc3 ba3c d721 b3bd
000000e0: 4021 c83c 408b 953d 4b24 d0bc 52cd d23a
000000f0: aaf0 5e3d 9d2a b3bc 3de2 a23d 95e9 b13d
00000100: fdf3 a43d 05c0 9d3c 03a4 343c 26b9 99bd
00000110: 10ed a5bd 3ee6 f9bc a207 fabd ae11 c5bb
00000120: 3aad 40bd abba 09bd 751a 61bd c209 a2bb
00000130: 7047 71bc 0ebe be3d c78d 83be dd9e acbd
00000140: 63d7 2fbe d530 e73c 12e8 a4bd ff98 433d
00000150: 2f3a ba3d 3d43 983d dcf5 a5bd a7e3 79bd
00000160: a85c 893d c53a 34bd 5170 95bd fc03 83bd
00000170: def7 053d 180b 8bbb 0183 4ebd 182a 8f3d
00000180: 29b7 9fbd 652f ff3b ced4 1b3d 46e5 003d
00000190: be55 6b3d 272c 283e 751a 423d 7532 28bc
000001a0: 57aa 0abc 4ba4 033f bdfb c63d e7b7 e53c
000001b0: 4fe2 2fbd db4f 47bc 0184 123d 6262 09be
000001c0: 9d06 983d a739 2d3d f11e e93c f49c 0abd
000001d0: 9af1 9cbd 1b82 3cbd d8f0 5fbd 4d81 1bbd
000001e0: 9a7e 723d d8ae b0bc d0f8 b63d 170f 92bd
000001f0: 8765 6fbd b3f4 b7bd a417 163d 34e0 4ebb
00000200: 3334 1a3d 0c05 833d 89aa 22bc 52b8 84bb
00000210: 165c 253d 0e7d c83d 20f0 783d 6890 953d
00000220: 8590 42bd b451 a7bd b9ff a63d 3fea 14bd
00000230: aa33 4c3d 0bba 27bd 6fcc 08bd 9243 bf3c
00000240: 8cce 983d 3424 aebe 58a3 8b3d 09f1 f53c
00000250: dbc4 bdbc 0fd8 bf3e c11f 3b3d 3123 923d
00000260: 4d76 cd3b 9c6a 863d c123 04bc e8e3 c73c
00000270: acb3 a8bd 64eb 5d3d 9a4a 25be 4ec9 d33c
00000280: 1585 35bb cb55 963e 17ed 9bbd c769 a6bd
00000290: d0cf 7c3d 389c a1bd f6e2 08bd 265b 87be
000002a0: 1be8 66bd e8f2 09bd 5ee9 b63c 03a0 19bd
000002b0: 5a8d 93bd 9823 68bd db66 7d3c 8bf2 8cbd
000002c0: c157 c23d ed82 bdbd b67b b0bd 08aa 0abd
000002d0: 7c83 453e 8bda 8f3d 208e 88bc 22da 37bb
000002e0: 2b32 9c3b 92a8 d0bb 9859 d03c ec6d 4cbd
000002f0: 3aee e53c 32e7 5e3c b40b 643d 7b9c 85bd
00000300: 86b7 ddbc eb16 473d 3d43 923d 112d 153e
00000310: b79d afbc 8682 803c e768 2d3d 4268 8b3d
00000320: df41 593d 0bc9 98bd 0275 1a3d f9cb e03c
00000330: 1514 893d bca0 9dbd 534f 8e3e adc1 fa3c
00000340: 2f40 f23d 119e bcbc 4229 813d 3c56 8f3d
00000350: 3b00 cebd 6412 e63c 542a 9dbc 0bd4 a3bd
00000360: 7f84 d6bc d3a6 173d ca83 883d b7ae 863c
00000370: 75c1 463d 5c30 bcbd 57ab 3ebd 959d 38bd
00000380: 72dc 3cbd 4664 6abd 92e8 69bd 1b18 81bd
00000390: 480e f13c ab92 5dbe 220f ef3a 8a98 32bc
000003a0: d5bd d63c c37b 25bf 726a ebbd c8e7 b3bd
000003b0: 8034 fa3d 1f4d 083c ae12 9abd c408 723c
000003c0: d4de 3ebb 26ce 00bd 0329 b93d 429b c03d
000003d0: b154 7c3c 5cb4 e03b 84a7 0f3d 88af 993c
000003e0: 3d1b 923c e26e b63c ca2f a0bd dc20 543d
000003f0: e6f6 4a3d 548e 963d 4e7d 1f3d 5d89 e33d

actor.bias f4 [2]
-0.055680234 0.015945612
00000000: f510 64bd 5fa0 823c

critic.weight f4 [1, 128]
-0.05263039 0.35348576 0.30636752 -0.16852327 0.32190228 0.3307764 -0.011645666 0.3566366
-0.031787675 -0.027530987 -0.02298233 0.2727972 -0.049683314 0.042897105 -0.07367775 -0.0359978
-0.03622904 -0.39736372 0.2920782 0.32990718 -0.008085493 -0.26178312 0.016403256 -0.0648549
-0.25441572 -0.042513907 -0.05482338 0.0005081233 0.3317948 0.06828271 -0.3638798 0.30232686
0.08266916 -0.22977616 -0.01570371 -0.06507084 0.29798135 -0.025270551 0.27824727 -0.30834675
0.33159986 0.31842658 0.0009392334 0.37573716 0.34590358 0.27600256 -0.110322945 -0.36480546
0.33528265 0.32503864 -0.055819906 -0.048696667 -0.43844816 0.007608635 0.2759342 0.32932615
-0.02995277 -0.03882527 0.33433333 -0.07843101 0.3619287 -0.069823414 -0.060819145 0.31762308
0.3012921 0.31449538 0.34969896 -0.13875541 -0.04720763 0.2763669 -0.12814677 -0.073128074
-0.04412617 -0.04224598 0.014412478 0.012118879 0.343492 0.36240926 -0.39968428 0.34188148
-0.33625117 -0.39487278 -0.032514755 0.3184415 0.2819572 -0.057709787 0.27280867 0.29304045
0.04709167 -0.030635793 -0.06524664 0.008101622 -0.023343407 -0.009389351 -0.013135279 0.09016897
-0.08149883 -0.07161673 -0.04599687 -0.020849694 0.29752594 0.336893 -0.073165976 0.2510284
0.31944895 -0.046175044 0.2856519 0.33190867 0.37217033 0.27477273 -0.084800325 -0.2150499
0.33067244 -0.16240612 0.3277206 0.33884215 -0.062230144 0.35609138 -0.061356686 -0.052959144
0.31420073 0.33481693 0.34057304 0.31772324 0.2949381 0.32101074 -0.060516346 0.31615776
00000000: f792 57bd 16fc b43e 34dc 9c3e 5d91 2cbe
00000010: 60d0 a43e 865b a93e 77cd 3ebc 1399 b63e
00000020: cb33 02bd aa88 e1bc 7045 bcbc 13ac 8b3e
00000030: bb80 4bbd e0b4 2f3d 5ce4 96bd 6e72 13bd
00000040: e764 14bd 4273 cbbe 468b 953e 98e9 a83e
00000050: 0479 04bc 7008 86be 1f60 863c a5d2 84bd
00000060: c742 82be 1023 2ebd 7b8e 60bd 9433 053a
00000070: 02e1 a93e ced7 8b3d 744e babe 96ca 9a3e
00000080: 734e a93d 714a 6bbe 11a5 80bc dc43 85bd
00000090: 0391 983e 3004 cfbc 6d76 8e3e a0df 9dbe
000000a0: 75c7 a93e cf08 a33e e336 763a 9f60 c03e
000000b0: 461a b13e 3550 8d3e fff0 e1bd c8c7 babe
000000c0: 2baa ab3e 776b a63e 6aa3 64bd 2876 47bd
000000d0: 477c e0be db51 f93b 3f47 8d3e 709d a83e
000000e0: 835f f5bc 3f07 1fbd bd2d ab3e 70a0 a0bd
000000f0: b84e b93e 94ff 8ebd 7f1d 79bd 7e9f a23e
00000100: f542 9a3e 8a05 a13e be0b b33e e615 0ebe
00000110: ca5c 41bd f67f 8d3e e838 03be 2cc4 95bd
00000120: a5bd 34bd 1f0a 2dbd 5022 6c3c 438e 463c
00000130: 2fde af3e b58d b93e 6ba3 ccbe 170b af3e
00000140: 1d29 acbe c42c cabe 312e 05bd c40a a33e
00000150: b25c 903e 1961 6cbd 94ad 8b3e 6609 963e
00000160: 32e3 403d eaf7 fabc 08a0 85bd aabc 043c
00000170: ac3a bfbc cbd5 19bc 5a35 57bc 82aa b83d
00000180: dce8 a6bd cbab 92bd 3767 3cbd facc aabc
00000190: 5255 983e 3d7d ac3e 0bd8 95bd cb86 803e
000001a0: d08e a33e 0b22 3dbd f740 923e efef a93e
000001b0: 1c8d be3e 03af 8c3e cbab adbd 0a36 5cbe
000001c0: e64d a93e ca4d 26be ffca a73e b87c ad3e
000001d0: 09e5 7ebd 9c51 b63e 2651 7bbd b0eb 58bd
000001e0: ebde a03e 206d ab3e 975f ae3e 9fac a23e
000001f0: 2002 973e 855b a43e fddf 77bd 6edf a13e

exp_avg f4 [128, 4]
-0.0005109302 0.0004078215 4.167046e-05 0.0001877837 0.0017652886 -0.00395615 0.001048165 0.0017978149
0.0001361239 0.00023263897 -1.1225121e-05 -7.442288e-05 5.6384015e-05 4.972632e-05 -1.1029628e-05 1.3330909e-05
-0.0002404557 0.003409819 -0.0005876051 -0.00022429838 -0.00019049236 -0.0018320987 0.0006376062 0.00085945084
4.253317e-06 0.003546396 -0.0006169724 -0.00020044118 0.002187677 0.0008034615 -0.00015528446 0.00065691647
2.098019e-05 2.5578054e-06 -5.8685487e-06 6.0233533e-06 -0.00014720153 0.0034445415 -0.0005654616 -0.0002396786
-0.0001802829 -2.0791489e-05 -4.2114457e-06 0.00010156535 0.0032555927 0.001309374 -0.0004882708 0.00073554943
0.0039009727 0.0018554452 -0.0006522335 0.00066324905 0.0037154073 -0.0038513932 0.0012931364 0.001873555
-0.00012394035 0.003807675 -0.00065354194 -0.0002279513 0.0051633106 0.00077621423 -0.0005711219 0.0009331414
0.0013747716 0.0030072753 -0.00066438207 1.14992745e-05 -0.00018353423 0.00094255205 -0.00017520251 -0.00014847143
0.005356745 0.0030524682 0.00023381105 0.00030142764 0.00021317949 -0.0032727076 0.00083504006 0.0011015803
0.0003100867 -0.0021907433 0.0004791279 0.0005515155 0.00015564707 0.0037386657 -0.00060960953 -0.00037846228
-0.00014076105 0.0038751003 -0.0006674607 -0.00019606657 6.5574286e-06 -3.6785264e-06 -1.0086714e-05 -4.035515e-05
6.581817e-05 -0.00013522984 -0.00028821794 -0.0011950658 -6.0163078e-05 0.0020397299 -0.00035307335 -0.0001339166
0.015868992 -0.001026052 0.00065810716 -0.0017577385 -7.5923796e-05 0.0025563387 -0.0004368032 -8.360825e-05
0.005246795 -0.0013049144 0.000118270764 2.3623685e-05 0.00030875835 0.0014418944 -0.00014712206 0.00016238751
0.0060920124 -0.0015761161 0.00016934269 -0.0015881764 0.00018137346 0.0036510024 -0.0006430541 -0.0001908354
0.0007336288 0.0025524497 -0.00052984053 0.00017836282 0.00037243994 0.0025924088 -0.0004109889 -0.00014251113
-3.589247e-05 0.0028537905 -0.0004952598 -0.000121312856 0.0015396028 0.0028276872 -0.0006442369 7.2688876e-05
-0.00034576823 0.0028224587 -0.00048248627 -0.00014123454 0.0037071388 0.002435573 8.970027e-05 -0.00050819124
-0.00023769306 -4.6269524e-05 -0.0002731234 -0.0012703089 -0.00020993681 0.0035912725 -0.00061998004 -0.00023684022
3.702672e-05 2.2852773e-06 -8.9791276e-05 -0.00040192978 0.0010208278 0.0013766724 -0.00030688604 0.00016953675
0.0004543789 -0.00029117992 4.676779e-05 0.00016130353 -1.18274675e-05 -1.984074e-05 -1.8899902e-06 1.9229346e-05
-8.8779816e-05 0.0026540684 -0.0004603457 -0.00011531129 -0.00029764735 0.0031309244 -0.0005188081 -0.0002569945
-0.00015966487 0.003329731 -0.0005664465 -0.00017706667 -5.430098e-05 0.0036508916 -0.00062713225 -0.00019199785
-0.0001659158 0.0032971348 -0.0005444283 -0.00025162843 -0.00014422493 0.0032530092 -0.0005589421 -0.00016647643
-3.772569e-05 -0.0007464018 0.00018136881 0.00026443048 0.009841691 -0.0026462555 0.00035316078 -0.0021340032
2.8564466e-06 1.4970954e-07 -1.5958479e-07 -1.0362506e-06 -6.845715e-05 -0.0012990783 0.00034059267 0.00040539674
0.0 0.0 0.0 0.0 0.0015269185 -0.0002835887 0.00015619215 -8.138356e-05
0.00068521826 -0.006991011 0.0017507939 0.0022215242 -0.00017161155 -0.00062816276 0.00019368116 0.00050446746
7.003958e-05 -0.00010546128 -1.619856e-05 5.2932643e-05 0.011127321 -0.0026409128 0.0003090179 -0.002569499
0.009208149 -0.0011662542 0.00028097312 -0.0019883302 0.00094445614 0.0013620732 -0.00033979383 0.0002746903
-0.0001369973 0.003647596 -0.0006367979 -0.0002147031 0.006473412 -0.0014606637 0.000189516 -0.0016586884
00000000: f2ef 05ba e0d0 d539 51c7 2e38 cee7 4439
00000010: 4261 e73a 97a2 81bb 9562 893a a8a4 eb3a
00000020: 7bbc 0e39 8cf0 7339 8753 3cb7 7b13 9cb8
00000030: e07d 6c38 3b91 5038 e40b 39b7 d1a7 5f37
00000040: d622 7cb9 4577 5f3b 8309 1aba a331 6bb9
00000050: e7be 47b9 0823 f0ba 0725 273a c54c 613a
00000060: b7b7 8e36 a76a 683b 51bc 21ba 852d 52b9
00000070: 215f 0f3b 639f 523a dbd3 22b9 eb34 2c3a
00000080: 9dfe af37 c3a6 2b36 73ea c4b6 361c ca36
00000090: 1c5a 1ab9 d1bd 613b 7c3b 14ba 3c52 7bb9
000000a0: 530a 3db9 6269 aeb7 0b50 8db6 7bff d438
000000b0: c85b 553b 4d9f ab3a 99fe ffb9 e3d1 403a
000000c0: 76a7 7f3b 6932 f33a a6fa 2aba e4dd 2d3a
000000d0: 317e 733b a867 7cbb 757e a93a 1392 f53a
000000e0: fcf5 01b9 308a 793b 7552 2bba 3606 6fb9
000000f0: fd30 a93b db7a 4b3a 58b7 15ba 0f9e 743a
00000100: ae31 b43a b515 453b ed29 2eba 02ed 4037
00000110: 1873 40b9 9915 773a 91b6 37b9 ffae 1bb9
00000120: a287 af3b eb0b 483b 2d2b 7539 ef08 9e39
00000130: ef88 5f39 ec7a 56bb 97e6 5a3a e762 903a
00000140: 2293 a239 9392 0fbb 7533 fb39 9493 103a
00000150: 3135 2339 6704 753b 34ce 1fba 596c c6b9
00000160: 4299 13b9 65f5 7d3b 88f8 2eba 3897 4db9
00000170: e207 dc36 9adc 76b6 1b3a 29b7 0343 29b8
00000180: dc07 8a38 7ccc 0db9 f51b 97b9 c1a3 9cba
00000190: 9d57 7cb8 fdac 053b b41c b9b9 f76b 0cb9
000001a0: b0ff 813c 987c 86ba d384 2c3a eb63 e6ba
000001b0: 4739 9fb8 3f88 273b bc02 e5b9 d656 afb8
000001c0: 4eed ab3b a909 abba 2208 f838 7a2b c637
000001d0: d8e0 a139 f3fd bc3a c744 1ab9 9146 2a39
000001e0: 819f c73b ae95 ceba 9591 3139 5b2a d0ba
000001f0: 112f 3e39 a845 6f3b a192 28ba fd1a 48b9
00000200: ff50 403a 0047 273b ffe4 0aba e806 3b39
00000210: 0b44 c339 67e5 293b ff79 d7b9 0a6f 15b9
00000220: 3f8b 16b8 a906 3b3b 53d4 01ba 5869 feb8
00000230: 7fcc c93a b850 393b 02e2 28ba 8b70 9838
00000240: 3a48 b5b9 00f9 383b 36f6 fcb9 5c18 14b9
00000250: 78f3 723b 229e 1f3b 771d bc38 2338 05ba
00000260: 3f3d 79b9 8611 42b8 0132 8fb9 7e80 a6ba
00000270: 7c22 5cb9 8e5b 6b3b 2886 22ba 5058 78b9
00000280: 234d 1b38 c45c 1936 534e bcb8 1aba d2b9
00000290: 4ccd 853a 7671 b43a 8ce5 a0b9 adc5 3139
000002a0: b439 ee39 82a9 98b9 8828 4438 9623 2939
000002b0: 966e 46b7 aa6f a6b7 92ab fdb5 b54e a137
000002c0: 4d2f bab8 e1ef 2d3b 8e5a f1b9 47d3 f1b8
000002d0: 8d0d 9cb9 3230 4d3b 9f00 08ba 38bd 86b9
000002e0: b66b 27b9 9e37 5a3b 957d 14ba f9aa 39b9
000002f0: 3cc1 63b8 cc43 6f3b 2266 24ba 0853 49b9
00000300: aff9 2db9 be14 583b f7b7 0eba ffec 83b9
00000310: 163b 17b9 7030 553b f885 12ba 2d90 2eb9
00000320: a73b 1eb8 2daa 43ba d22d 3e39 42a3 8a39
00000330: 0b3f 213c cd6c 2dbb 7028 b939 a2da 0bbb
00000340: 61b1 3f36 d8bf 2034 555a 2bb4 4d15 8bb5
00000350: a790 8fb8 d645 aaba 9391 b239 6e8b d439
00000360: 0000 0000 0000 0000 0000 0000 0000 0000
00000370: e222 c83a a2ae 94b9 83c7 2339 77ac aab8
00000380: 38a0 333a da14 e5bb e57a e53a fe96 113b
00000390: a0f2 33b9 4aab 24ba e416 4b39 3d3e 043a
000003a0: 37e2 9238 182b ddb8 25e2 87b7 fe03 5e38
000003b0: 5e4f 363c 2a13 2dbb ae03 a239 0a65 28bb
000003c0: c7dd 163c ffdc 98ba 934f 9339 a54e 02bb
000003d0: 6195 773a 9887 b23a 5b26 b2b9 4f04 9039
000003e0: efa6 0fb9 820c 6f3b c9ee 26ba ed21 61b9
000003f0: ea1e d43b be73 bfba d0b8 4639 5968 d9ba

exp_avg_sq f4 [128, 4]
1.3680067e-05 1.6974493e-05 8.3557063e-07 1.1274913e-05 0.00051812886 0.00011851462 2.4627905e-06 3.4006276e-05
3.2992775e-05 1.8770437e-05 4.1491393e-07 1.2362478e-05 0.00025593533 0.00018344513 1.485733e-06 1.8180834e-05
0.00039692552 0.00021092533 5.529921e-06 6.904345e-05 0.000314712 7.4761e-05 1.2458424e-06 1.8236447e-05
0.0004316796 0.00022695774 6.0274715e-06 7.1285336e-05 0.00016012063 5.360678e-05 1.5652976e-06 2.0460659e-05
4.2060605e-05 3.8641796e-05 6.7595374e-07 1.1572404e-05 0.00039620578 0.00018826021 4.9899227e-06 5.549255e-05
2.424748e-05 2.3098597e-05 6.962798e-07 1.1898282e-05 0.00030548958 0.00015407863 3.5591736e-06 4.4366203e-05
0.00046658254 0.00026318777 7.4846557e-06 9.117983e-05 0.0005208624 5.7070447e-05 1.0990253e-06 5.9652107e-06
0.0005101132 0.00026023807 6.4882493e-06 7.3884374e-05 0.0004972325 0.00023659793 6.5685035e-06 8.021844e-05
0.0005960179 0.00029840233 7.50169e-06 8.4795305e-05 1.9017589e-05 6.2642794e-06 1.2217961e-07 2.1911535e-06
0.00023958109 0.00028505773 9.244224e-06 0.00012881828 0.0004179302 0.00014111584 5.2790074e-06 5.3533277e-05
0.00022617611 9.311784e-05 1.790289e-06 1.6216294e-05 0.00043702807 0.00022146985 5.290501e-06 6.0572223e-05
0.00056238024 0.00029379214 7.5548714e-06 9.163674e-05 1.9363158e-06 2.732975e-06 1.947277e-07 1.8305e-06
0.00020568805 0.00015688881 8.23602e-06 8.078475e-05 0.00013372218 5.6353856e-05 1.0372612e-06 9.774717e-06
0.0015649737 0.00033866506 3.2775654e-06 2.50147e-05 0.0002037122 9.1480826e-05 2.1449341e-06 2.5609663e-05
0.0001778958 5.8515667e-05 4.8406054e-07 3.265125e-06 0.0002389423 0.000116152936 5.3534204e-06 8.4821746e-05
0.00056874467 0.00030249055 9.392585e-06 7.554227e-05 0.0003864396 0.00018136692 6.950492e-06 8.261225e-05
0.00033677788 0.00016605723 3.8633925e-06 4.8943482e-05 0.00018818844 7.4804964e-05 1.973938e-06 1.8894596e-05
0.00023703258 9.811688e-05 2.9092146e-06 3.457057e-05 0.00052184105 0.00027067473 6.9622265e-06 8.462568e-05
0.00028453357 0.00013619456 2.8867075e-06 3.619169e-05 7.067816e-05 8.388392e-05 1.1369931e-06 2.4681867e-05
0.00016666127 0.00023729923 7.959383e-06 6.5471686e-05 0.0004554409 0.00023248642 6.0254615e-06 6.712313e-05
2.8479348e-05 2.8333363e-05 1.3415165e-06 1.5021656e-05 0.00014777956 8.120053e-05 1.8284843e-06 2.3139653e-05
6.7221263e-06 3.2209628e-06 1.1303365e-07 2.990952e-06 4.623175e-05 1.3372999e-05 1.1269417e-07 5.819562e-07
0.00023119013 0.000109805864 2.2607283e-06 2.2085975e-05 0.000325422 0.00013604015 3.44745e-06 3.638679e-05
0.0003804058 0.00019423479 5.850259e-06 6.650005e-05 0.00049113925 0.00025635402 6.49161e-06 7.9606e-05
0.00032584753 0.00016097682 5.46759e-06 6.20491e-05 0.0003803014 0.0001915019 4.4677013e-06 5.516225e-05
4.087275e-05 1.9169742e-05 6.645764e-07 8.232478e-06 0.001151084 0.00051811215 1.611986e-05 0.00013539927
5.8197367e-11 8.487194e-11 9.36974e-13 2.060206e-10 7.316046e-05 2.6164678e-05 6.7919603e-07 1.2064665e-05
0.0 0.0 0.0 0.0 8.355687e-06 9.542814e-06 8.302518e-07 1.186966e-05
0.0015410664 0.00027683208 5.515602e-06 2.2052163e-05 5.157285e-05 1.3635062e-05 2.002915e-07 3.7024843e-06
0.0002921079 0.0002738111 4.1755934e-06 5.6084107e-05 0.0014781369 0.000692668 2.0024105e-05 0.00016389613
0.00082635996 0.0002680112 3.7025384e-06 3.3833636e-05 0.000137028 5.050777e-05 1.4665517e-06 1.797002e-05
0.0004973732 0.0002541854 6.4070355e-06 7.146968e-05 0.000636654 0.00029460757 7.551875e-06 6.2174935e-05
00000000: 7183 6537 7264 8e37 fa4b 6035 6229 3d37
00000010: 0ad3 073a 0d8b f838 6b46 2536 f6a1 0e38
00000020: b961 0a38 3575 9d37 56c1 de34 7068 4f37
00000030: 0f2f 8639 2d5b 4039 6669 c735 0b83 9837
00000040: 711a d039 d62b 5d39 a98d b936 6ccb 9038
00000050: eeff a439 02c9 9c38 d236 a735 79fa 9837
00000060: 0e53 e239 81fb 6d39 963f ca36 067f 9538
00000070: 0ee6 2739 d7d7 6038 3717 d235 eea2 ab37
00000080: 3b6a 3038 5013 2238 3073 3535 1927 4237
00000090: d7b9 cf39 b767 4539 1c6f a736 acc0 6838
000000a0: 1167 cb37 dcc3 c137 fce7 3a35 bb9e 4737
000000b0: 1e2a a039 2b90 2139 23da 6e36 d915 3a38
000000c0: a69f f439 77fc 8939 b424 fb36 cc37 bf38
000000d0: 7c8a 083a ed5e 6f38 3982 9335 c528 c836
000000e0: 1eb9 053a 9070 8839 a3b5 d936 5ff2 9a38
000000f0: b558 023a 4617 7839 0467 dc36 f23a a838
00000100: 163e 1c3a e272 9c39 07b7 fb36 22d4 b138
00000110: f687 9f37 c031 d236 7a30 0334 bb0b 1336
00000120: 0f38 7b39 cd73 9539 a417 1b37 6513 0739
00000130: a41d db39 7ff8 1339 5422 b136 eb88 6038
00000140: b029 6d39 4248 c338 dd49 f035 3a08 8837
00000150: ea20 e539 5c3a 6839 0f85 b136 ee0e 7e38
00000160: b36c 133a 1d08 9a39 da7f fd36 1a2d c038
00000170: a7f1 0136 2768 3736 5816 5134 80af f535
00000180: f7ad 5739 8582 2439 702d 0a37 fb6a a938
00000190: c637 0c39 7e5d 6c38 0638 8b35 17fe 2337
000001a0: ce1f cd3a db8e b139 25f4 5b36 a9d6 d137
000001b0: 949b 5539 65d9 bf38 b0f1 0f36 55d4 d637
000001c0: 8a89 3a39 b86e 7538 63f0 0135 6c1e 5b36
000001d0: 968c 7a39 2297 f338 88a1 b336 54e2 b138
000001e0: cf17 153a 9897 9e39 d894 1d37 736c 9e38
000001f0: 0c9b ca39 502d 3e39 4638 e936 1d40 ad38
00000200: 9091 b039 a61f 2e39 4aa2 8136 aa48 4d38
00000210: 7354 4539 9ce0 9c38 ff77 0436 d67f 9e37
00000220: f38b 7839 19c4 cd38 ed3b 4336 deff 1038
00000230: 29cc 083a 59e9 8d39 129d e936 1179 b138
00000240: 732d 9539 73cf 0e39 42b9 4136 88cc 1738
00000250: 0c39 9438 d6ea af38 c99a 9835 e80b cf37
00000260: cbc1 2e39 87d3 7839 4a89 0537 d84d 8938
00000270: 3ec8 ee39 99c7 7339 522e ca36 75c4 8c38
00000280: efe6 ee37 6fad ed37 280e b435 8505 7c37
00000290: 46f5 1a39 344a aa38 3e6a f535 071c c237
000002a0: a08e e136 b827 5836 e8bc f233 2ab8 4836
000002b0: f7e8 4138 985c 6037 4602 f233 ba37 1c35
000002c0: a16b 7239 9347 e638 04b7 1736 4545 b937
000002d0: 679d aa39 00a6 0e39 bd5a 6736 059e 1838
000002e0: 3471 c739 81ab 4b39 584d c436 f175 8b38
000002f0: ccbf 003a 4167 8639 81d2 d936 25f2 a638
00000300: 84d6 aa39 e3cb 2839 3e76 b736 5b20 8238
00000310: 3163 c739 e6cd 4839 43e9 9536 045e 6738
00000320: c86e 2b38 b5ce a037 5865 3235 391e 0a37
00000330: f8df 963a ebd1 073a 2339 8737 f7f9 0d39
00000340: 69f4 7f2e a8a2 ba2e 0cde 832b a585 622f
00000350: b96d 9938 387c db37 ff51 3635 5769 4a37
00000360: 0000 0000 0000 0000 0000 0000 0000 0000
00000370: 672f 0c37 131a 2037 78de 5e35 cd23 4737
00000380: 9cfd c93a c623 9139 a912 b936 a9fc b837
00000390: ed4f 5838 25c2 6437 b50f 5734 3278 7836
000003a0: 0f26 9939 4e8e 8f39 131c 8c36 da3b 6b38
000003b0: 0bbe c13a 2a94 353a 70f9 a737 88db 2b39
000003c0: 14a0 583a db83 8c39 2079 7836 97e8 0d38
000003d0: 2caf 0f39 4ed8 5338 55d6 c435 53be 9637
000003e0: 2762 023a 3044 8539 04fc d636 fee1 9538
000003f0: 20e5 263a 8f75 9a39 1d66 fd36 ea63 8238

exp_avg f4 [128]
-0.00075552514 0.0026218467 -9.21581e-05 0.000102098355 -0.005446054 0.0032703553 -0.0059824623 -0.0057790945
1.0906147e-05 -0.005480156 0.00016041729 -0.006860031 -0.008194831 0.0020567703 -0.006232823 -0.009440057
-0.0075922883 -0.0013342652 -0.006886614 0.0027892906 0.0022960047 -0.005763112 -0.0064814067 0.00012032868
0.0029955553 -0.0033667542 -0.0006604057 -0.0043688132 0.00093709683 -0.005307565 0.004425755 -0.0061047147
-0.0055656205 -0.0043038614 -0.00478617 -0.007236158 -0.004602998 -0.0037898598 0.003036141 -0.0057742056
0.0010327268 -0.004322054 0.00037389804 2.522801e-06 -0.004496779 -0.0048672967 -0.005465283 -0.0061187907
-0.00516191 -0.005396435 0.0006442039 0.005330405 -1.289978e-06 0.0013957691 0.0 -0.00013806998
0.0061025084 0.0016980132 -0.00018815866 0.006153857 0.0028634083 -0.0041699144 -0.0060182363 0.004066906
-2.2205171e-05 -0.010812526 0.00017994254 0.0063759102 -0.0045545595 0.0005678309 -0.0066553894 -0.0041928277
-0.009350439 -0.0052436735 0.003527566 -0.0037844111 -0.0051191845 -0.0030385337 -0.005081748 -0.0045035766
0.0026159454 -0.004391346 0.0025011264 0.0008732697 0.00042214768 0.0025126068 -0.005863478 0.001105403
0.0016515541 -0.004018787 0.0007343832 0.0009348739 0.0019318591 0.0009587701 7.338478e-05 5.4205684e-05
-0.0058023487 -0.0063748076 -0.005504122 0.0018366498 -0.00013090839 -0.0061880657 -0.006615469 -0.00061957387
-0.003562722 0.0015141815 0.0012808234 -0.0062435535 0.0041101477 0.0027717173 -0.0009239616 1.717629e-06
-0.0038468058 0.0034204652 -6.3854655e-05 -0.0056286617 5.2084583e-06 -0.0008135734 1.2384651e-05 0.0011190289
-0.006904835 -0.0053298757 0.00010247732 4.3532695e-05 0.00010137223 0.0016439577 0.000815268 0.0020475779
00000000: 6f0e 46ba 4ad3 2b3b 0145 c1b8 a31d d638
00000010: d074 b2bb 7553 563b 8808 c4bb 8f5e bdbb
00000020: 8bf9 3637 e192 b3bb b035 2839 1cca e0bb
00000030: 9d43 06bc e1ca 063b b53c ccbb 78aa 1abc
00000040: bbc8 f8bb 83e2 aeba 1ba9 e1bb 88cc 363b
00000050: 9178 163b 7dd8 bcbb fb61 d4bb f858 fc38
00000060: 1451 443b c3a4 5cbb 141f 2dba 4328 8fbb
00000070: 81a7 753a 15eb adbb ec05 913b 0f0a c8bb
00000080: cf5f b6bb 6807 8dbb 4ed5 9cbb 4b1d edbb
00000090: bfd4 96bb 4c5f 78bb fef9 463b 8c35 bdbb
000000a0: 905c 873a 04a0 8dbb bf07 c439 644d 2936
000000b0: b759 93bb d87d 9fbb 1e16 b3bb 2380 c8bb
000000c0: 3d25 a9bb 94d4 b0bb cbdf 283a aeaa ae3b
000000d0: 4e23 adb5 3df2 b63a 0000 0000 e1c6 10b9
000000e0: 8df7 c73b de8f de3a 754c 45b9 4ba6 c93b
000000f0: 05a8 3b3b c7a3 88bb a034 c5bb ae43 853b
00000100: 3e45 bab7 0527 31bc f5ae 3c39 03ed d03b
00000110: 6a3e 95bb 7dda 143a 7415 dabb fd63 89bb
00000120: 9532 19bc 1fd3 abbb bd2e 673b e203 78bb
00000130: d5be a7bb 2322 47bb cb84 a6bb bd92 93bb
00000140: 4870 2b3b 48e5 8fbb f0e9 233b 23ec 643a
00000150: b453 dd39 8caa 243b 6b22 c0bb 2be3 903a
00000160: f678 d83a 07b0 83bb 9f83 403a 5312 753a
00000170: 6f36 fd3a f955 7b3a 27e6 9938 e95a 6338
00000180: a121 bebb c3e3 d0bb ec5b b4bb bebb f03a
00000190: 7444 09b9 42c5 cabb 94c6 d8bb e66a 22ba
000001a0: 8e7c 69bb 8077 c63a 4de1 a73a b996 ccbb
000001b0: 6bae 863b b3a5 353b 0336 72ba 4889 e635
000001c0: b11a 7cbb e229 603b b5e9 85b8 a370 b8bb
000001d0: 51c4 ae36 fd45 55ba acc7 4f37 61ac 923a
000001e0: f441 e2bb 3da6 aebb 18e9 d638 e096 3638
000001f0: cd97 d438 117a d73a b6b7 553a a830 063b

exp_avg_sq f4 [128]
9.613453e-05 0.0002351182 3.041639e-05 0.00019908609 0.0006756567 0.000135833 0.0007516774 0.0002242181
7.106591e-05 0.0006449504 5.2433483e-05 0.00048961164 0.000834577 0.00016347365 0.0008270604 0.0008072786
0.0009345053 1.805176e-05 0.0009715585 0.00036917746 0.00020219233 0.00068531855 0.0009154843 1.1806174e-05
0.0004649551 0.00018091894 0.0006263939 0.0003335635 8.193472e-05 0.0005238082 0.00079883856 0.0007697995
0.0005244764 0.00028665637 0.0003932847 0.0008453741 0.00042140824 0.00015003604 0.00058711885 0.0007523136
8.6508975e-05 0.0002548426 6.4676515e-06 1.5079789e-05 0.00035579357 0.00048606284 0.0006895283 0.00079974864
0.0006198106 0.0005948284 4.9869224e-05 0.001334957 4.1963946e-11 5.5560045e-05 0.0 3.553523e-05
0.00061502657 2.3451863e-05 0.00047389048 0.0017187725 0.00051017734 0.00021363552 0.0008035455 0.00073698367
1.1427914e-05 0.00072996557 4.928855e-05 0.0009241675 0.0004693076 7.561097e-05 0.00095055025 0.0003250251
0.00090205757 0.0004680905 0.00021364614 0.0002472612 0.0004686983 0.00015756785 0.00050490256 0.0004594862
0.00024055755 0.00032361364 0.0003079225 1.9981924e-05 6.216482e-05 0.0006253157 0.0006714726 8.64657e-05
0.00041629022 0.00018565592 7.249947e-05 8.298658e-05 0.00023902436 0.001593644 9.373531e-06 1.1538514e-05
0.00075289427 0.0009802016 0.00070985506 0.00020496907 2.4488189e-05 0.0008462174 0.00093823025 6.2223065e-05
0.0002140677 8.315257e-05 0.000115859955 0.000845819 0.0005628726 0.0003339068 0.00089919526 5.1190214e-06
8.292265e-05 0.00022038697 7.933129e-06 0.0006672988 2.4264043e-06 0.000102938335 2.1368163e-05 4.1163756e-05
0.00051964127 0.0005438345 0.00012578588 5.7623358e-05 2.461085e-05 3.424031e-05 0.00014608662 0.00021488822
00000000: d59b c938 108a 7639 b326 ff37 c4c1 5039
00000010: 8e1e 313a 656e 0e39 370c 453a 171c 6b39
00000020: 3809 9538 e411 293a 06ec 5b38 4859 003a
00000030: 84c7 5a3a 206a 2b39 15cf 583a 8d9f 533a
00000040: 97f9 743a dc6d 9737 30b0 7e3a 298e c139
00000050: 9703 5439 f3a6 333a 1dfd 6f3a 2213 4637
00000060: 38c5 f339 0fb5 3d39 9534 243a 23e2 ae39
00000070: 5ed4 ab38 2c50 093a 2669 513a 5fcc 493a
00000080: 047d 093a 5e4a 9639 c731 ce39 189c 5d3a
00000090: 75f0 dc39 fe52 1d39 e1e8 193a e936 453a
000000a0: 276c b538 659c 8539 b404 d936 33ff 7c37
000000b0: ce89 ba39 40d6 fe39 76c1 343a 39a6 513a
000000c0: c97a 223a 42ee 1b3a ac2a 5138 b9f9 ae3a
000000d0: 348f 382e 2509 6938 0000 0000 aa0b 1538
000000e0: bc39 213a 7eba c437 8174 f839 6f48 e13a
000000f0: 6cbd 053a 5903 6039 07a5 523a 2332 413a
00000100: 84ba 3f37 295b 3f3a 2dbb 4e38 d543 723a
00000110: 660d f639 5591 9e38 592e 793a 2168 aa39
00000120: 0f78 6c3a 0b6a f539 3306 6039 d6a2 8139
00000130: 9fbb f539 cc38 2539 705b 043a 32e7 f039
00000140: 2d3e 7c39 b0aa a939 a970 a139 db9e a737
00000150: 7c5e 8238 3aec 233a c305 303a eb54 b538
00000160: 8741 da39 a2ac 4239 db0a 9838 1509 ae38
00000170: 9da2 7a39 d2e1 d03a 0243 1d37 8a95 4137
00000180: e15d 453a 1c7a 803a 9115 3a3a f7ec 5639
00000190: fc6b cd37 b0d4 5d3a 91f3 753a c17d 8238
000001a0: 5c77 6039 3262 ae38 d7f9 f238 f4b9 5d3a
000001b0: be8d 133a 3610 af39 f9b7 6b3a 0fc4 ab36
000001c0: c2e6 ad38 ad17 6739 8818 0537 aaed 2e3a
000001d0: 4fd5 2236 99e0 d738 c83f b337 3fa7 2c38
000001e0: 8938 083a 1e90 0e3a 64e5 0339 9cb0 7138
000001f0: 6673 ce37 419d 0f38 d42e 1939 9e53 6139
