DDQN/ddqn_cartpole.pth (torch, 83336 bytes, 24 tensors)

fc1.weight f4 [64, 4]
00000000: 678f 6d3e 314c 173f 2d07 4f3e ec15 d63e
00000010: c30c 37bf 37cc 393e da16 843f e444 c73e
00000020: 3b82 ec3e 82a6 bbbe 4584 9f3e e039 263e
00000030: a790 943e ac40 e33d d266 3a3e a3c6 84bd
00000040: 311d 923e 0052 9f3d 2bd9 b0be a313 033e
00000050: 0a85 5dbf 3e6a 023e e5c2 803f f821 ae3e
00000060: d2b2 62bf 3dd2 18bf 49fd 11bf 5756 a6be
00000070: 2413 2fbf e9bc 6abf 6ce8 40bb d52a 1abf
00000080: b212 5b3e 1a8f debc fdbf 48be 23f5 c43e
00000090: 4bc7 c0bd 8797 b63e a21a 553e 7d86 fabc
000000a0: b0cd 983e 9269 1d3e 46be bf3f f881 323f
000000b0: 9509 8c3e 58c6 98be ef98 b73e 6d8d 753e
000000c0: 49d6 bcbe 1da3 20bf 6a96 dbbf 7b04 e6be
000000d0: 9c5b c4be d60e d23e d878 133e cc13 543e
000000e0: 5b1c 3d3d 01fd 83bd 284b fc3e 4f53 5cbe
000000f0: 3ff9 22bf e993 62bf 80ef 83be 5e8f 1ebf
00000100: 495a 3f3d abb0 92bd d0d8 bb3e 6b77 96be
00000110: 7c45 bcbe dc9c bfbe bb5c a43e e3e2 da3d
00000120: 38e6 0c3f de73 b0be ae45 8ebf f997 f4be
00000130: 7fb9 2e3e 6322 253f 1644 b83f d5cb f03e
00000140: be05 87bf 3cd9 43bf 0877 a8bd 9143 f9be
00000150: 4d49 6f3e 9ce9 0cbe c6aa 763e d6c8 52be
00000160: 201e fabe 5fbc 4e3d 8b36 3b3d 8bd3 04be
00000170: 0c18 253f 9872 c33e beab 45bf 721a 86bd
00000180: 7cda 683f 313a a5be 4282 bfbf 4a04 e8be
00000190: 4127 3abd 8f00 06be c702 c2bf 0d93 32bf
000001a0: ce70 a53e 227a c4be 3c2e dcbf 734f 24bf
000001b0: d215 3bbf 2fd7 e0bd cdf6 e83f ac47 613e
000001c0: 2330 dcbe 0d2a 37bf d8e1 85bf 2d01 fdbe
000001d0: 7c92 6fbe dd7d 3bbf 429c b0bf a63e 04bf
000001e0: e72c 143f dfe8 99be 7bb5 a5bf edda 0cbf
000001f0: 64b8 15be e366 2cbe 5f1f 0abf ee8d b6be
00000200: d1b1 913e c729 cdbc be93 2c3f c29a 313e
00000210: 59b3 9cbf 6ffd a33e 8465 243e 4a55 213e
00000220: d202 b3bf 7732 15bf 9ef1 0e3f 9eba b0be
00000230: c2d7 c3be 3e47 6dbf b599 27bf a830 20bf
00000240: 98c9 fd3b c555 b93e 59e3 ca3f 05c9 ee3e
00000250: 8ff9 d83e db37 dbbe 3fdf c03d 39a9 7cbe
00000260: 0606 0abf ff60 37bf cca8 283e 1d0f d2be
00000270: b985 ef3e c028 233e dc3e 2ebf f4d6 e7be
00000280: 3be0 7a3f b0e8 a63e ad5f f7be 9de0 913d
00000290: a6bd 063f ce1f 99be b6e3 83bf 3840 a43e
000002a0: 40ea 82bf 03bb 3cbf 134f 83bf 0bdd 00bf
000002b0: 9fec 543f c6f6 ae3d d1e2 63bf c553 5e3d
000002c0: 505f 9dbf f955 823e cb28 283f c21e 8dbe
000002d0: d2cf 533f e0e8 9a3e 4005 45be 7d42 463e
000002e0: 61a0 1c3f 8018 143f 32ce 203f 596a ca3e
000002f0: b162 8b3e ce7f 10be 0156 a2bf 1b64 c1be
00000300: 25d8 1c3f f860 213f 4a7c 49bb bab5 3e3e
00000310: dc2e 0dbe eca0 86bd 7463 433e 6baf 6f3e
00000320: cbe2 89bf d3e7 23be 8d92 c33f b750 903e
00000330: 8397 ca3e 1663 e9be 2145 3ebf 567b 74be
00000340: ae79 d53d b552 993e 944e c93f 8344 073f
00000350: 262c 37bf 6045 12bf 0191 bfbe aaf9 d23e
00000360: bbc9 dc3c 12c8 cebd 7b8f 8b3d 1447 41be
00000370: 6060 f8be 90dc d13e 8ea2 24be 1ce8 023d
00000380: 7eab febe 5255 ab3e 58f4 c13e f498 3a3e
00000390: f6fe 88be 5664 25bf 2a10 5cbf 8959 6b3e
000003a0: fe14 2a3e a9c9 0c3f 9ebc cb3e 39bd 8e3d
000003b0: aa8c d73e 7209 fdbe 9a7c 62bf b19d 85be
000003c0: 3e32 733e d274 47be 2e79 39bf 6ecf babe
000003d0: dd69 7dbc e2c0 cbbe d5c8 12bf 55a6 773e
000003e0: 4a50 16bf f20b 6b3e e757 b7be d56e 40be
000003f0: 1241 5c3c a32c 60be 0e84 0ebf 1ddc 84be
0.23199235 0.59100634 0.20217581 0.418136 -0.7150385 0.18144308 1.0319474 0.38919747
0.46193108 -0.36650473 0.311556 0.16233015 0.2901661 0.110963196 0.18203285 -0.064831994
0.28537896 0.07779312 -0.34540686 0.1280046 -0.86531126 0.1273584 1.0059477 0.3401029
-0.8855411 -0.596958 -0.5702711 -0.32487747 -0.6838858 -0.91694504 -0.002943541 -0.60221606
0.2139385 -0.027167846 -0.19604488 0.38468274 -0.09413012 0.3566248 0.20810941 -0.030581707
0.29844427 0.15372303 1.4979942 0.69729567 0.2735106 -0.29838824 0.35858867 0.23979731
-0.36882237 -0.6274889 -1.7155278 -0.44925293 -0.38351142 0.41026944 0.14401567 0.20710677
0.04616962 -0.06444741 0.4927609 -0.21516155 -0.6366157 -0.88506943 -0.25768661 -0.6193751
0.046716962 -0.07162603 0.36688852 -0.29387984 -0.36771762 -0.37424362 0.32101998 0.106878065
0.55038786 -0.344634 -1.1115015 -0.47772196 0.17062949 0.64505595 1.4395778 0.47030511
-1.0548627 -0.7650335 -0.082258284 -0.48684362 0.23367806 -0.1376099 0.24088582 -0.20584425
-0.4885111 0.050472613 0.045706313 -0.12971322 0.6448982 0.38173366 -0.7721518 -0.06548013
0.9095838 -0.3227096 -1.4961627 -0.45315772 -0.04544759 -0.1308615 -1.5157098 -0.6975563
0.32312626 -0.3837443 -1.720161 -0.6418373 -0.7308017 -0.10978543 1.8200318 0.21999997
-0.43005475 -0.7154854 -1.0459547 -0.4941496 -0.23395723 -0.7323893 -1.3797686 -0.51658094
0.57881016 -0.3006048 -1.2946008 -0.55021554 -0.1462112 -0.16836123 -0.5395412 -0.3565516
0.28455976 -0.025044335 0.67412937 0.17344192 -1.2242233 0.32029292 0.1605435 0.15755191
-1.3985236 -0.5828013 0.5583743 -0.34517378 -0.38250548 -0.9268683 -0.65468913 -0.62574244
0.007744979 0.3619825 1.5850631 0.4663774 0.42377898 -0.42816052 0.09417581 -0.24673928
-0.5391544 -0.7163238 0.16470641 -0.41027156 0.4678171 0.15933514 -0.68064666 -0.45281184
0.979984 0.325994 -0.48315182 0.0712292 0.5263313 -0.29907078 -1.0303867 0.32080245
-1.0227737 -0.7372286 -1.0258507 -0.50337285 0.83173555 0.08543162 -0.8901797 0.054279108
-1.2294712 0.25456217 0.65687245 -0.2756253 0.82738984 0.30255795 -0.19240284 0.19361301
0.6118222 0.57849884 0.6281463 0.39534262 0.27223733 -0.14111254 -1.2682496 -0.37771687
0.6126731 0.6303859 -0.0030744248 0.1862401 -0.13787407 -0.06573662 0.19080907 0.2340676
-1.0772337 -0.16006403 1.5279099 0.2818658 0.3956872 -0.4558341 -0.7432423 -0.23875174
0.10423599 0.29945913 1.5727105 0.52838916 -0.7155174 -0.5713711 -0.37415317 0.41206104
0.026951661 -0.10096754 0.06814476 -0.1887477 -0.48511028 0.40988588 -0.16077635 0.031959638
-0.49740213 0.33463532 0.37881732 0.1822241 -0.2675702 -0.64606225 -0.85962164 0.22983374
0.1660957 0.5499521 0.3979234 0.06969685 0.42099506 -0.4942127 -0.88471377 -0.26096871
0.23749635 -0.19478157 -0.7245053 -0.3648638 -0.015467134 -0.39795595 -0.57337695 0.24184544
-0.5871626 0.22953776 -0.35809252 -0.18792279 0.013443248 -0.21892028 -0.5567025 -0.25949183

fc1.bias f4 [64]
00000000: 2834 123f 0df8 b4be 056b 283f 8ec5 023f
00000010: 0711 3e3f 4571 d5be 92f8 eb3e 1b35 f0bc
00000020: 39c5 193f d8d4 5a3f 420e 3ebe 63a3 c03e
00000030: ea73 a4bc 8cc1 d5be 75d0 273f d22b 533b
00000040: 9a2a 393f 3a6a 3f3f 3188 4a3f 2966 f73c
00000050: ed86 fdbc 0896 053f 8ffa 1a3f b54a 1abf
00000060: 8cd8 36be 664c 9cbe 91d0 d3be 51ab 9fbe
00000070: 829a f3bc 65da c9bc ca5c 8fbe 5f97 523f
00000080: 9795 523f 4ce6 3e3e 84bc a7bd fd94 cebc
00000090: 938a 04bf 58ad 04bf 02d2 b23e 8b70 10be
000000a0: 820f b33c 305a 903e 28ca edbc 3448 eabb
000000b0: 2746 243e 67d4 1a3d 1140 b93c 9e22 95be
000000c0: ef31 78be 5752 503f f9c4 98be 2bbd f33e
000000d0: 583a adbe c3f1 523e 0764 563f 0c13 2a3f
000000e0: 7ad9 ddbe f0dc ea3e ade3 3e3f bf2a 063f
000000f0: d198 203f 78e9 573f 15b7 813e 9dc0 123f
0.57110834 -0.35345498 0.657883 0.51082695 0.7424473 -0.4168798 0.46088082 -0.029322198
0.6006656 0.85481024 -0.18560126 0.37624654 -0.020074803 -0.41749227 0.65552455 0.0032222164
0.7233063 0.74771464 0.7911406 0.030200081 -0.030948127 0.52182055 0.6053857 -0.60270244
-0.17856044 -0.30527037 -0.4137006 -0.31185392 -0.029736761 -0.024640271 -0.2800048 0.82262224
0.82259506 0.18642539 -0.081902534 -0.025217528 -0.5177395 -0.51827 0.34925848 -0.14105432
0.02185798 0.28193808 -0.02902706 -0.0071497206 0.16042386 0.03780022 0.022613557 -0.29127973
-0.24237798 0.8137564 -0.29837778 0.4760526 -0.33833575 0.20600037 0.8374638 0.66435313
-0.43329984 0.45871687 0.74566156 0.52408975 0.6273318 0.8434062 0.25334993 0.57325155

fc2.weight f4 [64, 64]
00000000: aaf8 503e d257 3abf f0b0 9a3e 8e18 9f3e
00000010: 887f 393e f092 27bf 2b09 bcbc 8051 e9bf
00000020: e855 f83d d50e 703e ed3e c0bc 836b cd3d
00000030: 4580 e6bf 8c5e cdbd e57c 923e 1820 bcbf
00000040: 3891 533e e71e 6f3e 973f 243e 520a d6be
00000050: 548d edbf afd9 2e3e d24d 173e f98f 78be
00000060: 4701 8cbf 4398 38bf 81bc 78bf ef90 c3be
00000070: 9d69 f8bf 03cf fdbf a913 6dbf 2d82 983e
00000080: d3cd b63e 2e60 923e 5a78 f6bf 9396 bdbf
00000090: b892 1bbf 291a 31bd 6382 b7bb e9dd d0bd
000000a0: fcc9 42be d85e bb3d cd95 d9bf 62a0 c8bd
000000b0: 9d94 3ebd 106e bfbd c182 2ebe e6c1 80bf
000000c0: 0a27 88be 232a 693e 921d 53be 808e 313e
000000d0: 23f3 47bf 4b7b f2bd 1088 073e 5de5 4b3e
000000e0: d871 b93c d3fc 9b3c fb8a c73e 0082 13bd
000000f0: ea95 933e b6df a83d d10f 49be 9f74 bf3c
00000100: 3e53 9f3e 8ff3 0fbc b3ee aa3d d9d9 773e
00000110: 5328 813e 1c45 22be a315 473d 0e8a 633e
00000120: 190e 4d3e 0945 e53e 7227 f03e bd2f 4c3d
00000130: 134f 93bf 5083 5d3c 472e e73e c845 9fbe
00000140: 0a35 b63e 25bb c53e 2ba0 b4be 0670 5f3f
00000150: 67d5 29be 9045 773e 5bcf 943e 4fad 073f
00000160: f17e 02c0 f698 05c0 35fa 22c0 08cd 053f
00000170: 70f9 b93e 9777 fbbe dfad c7bf 0878 44bd
00000180: 3e93 933e 1c73 ae3e e274 083d 6a47 0e3e
00000190: 5c34 f83e 22cb 65bc bb8f 333e 5a83 25be
000001a0: 4299 7bbe 232e d9be ee49 43be 44bc 3ebf
000001b0: 6e06 693e 987d 33bd 0dca 92ba a638 20c0
000001c0: b495 39be 7392 a53e 4a59 ea3e a889 2dbe
000001d0: 19fc 5c3f 0931 103d a9d4 943e ac61 ca3e
000001e0: c0b9 1abd 8de5 52bd 587d c83e 2c31 88be
000001f0: 0ccf 3abe 6464 cabc fc17 e3bc c8f4 c8bd
00000200: 25b3 a93e fd05 88bf ad8f 993e eeeb 053e
00000210: 07d8 6e3e 3c6d 3abf 41df e83e bed1 e3be
00000220: 7270 903e fa6d fc3e 4098 30be 70db 0d3e
00000230: b1ab 20bf a0e8 f53c 849b d03e 87ea 56bd
00000240: aa32 d53e 84cb 933e 2830 893e d41a 17bf
00000250: f625 e3be 51bc dc3e dfc7 023f fe4d d73c
00000260: 6a50 1dbf 2e31 ebbe fd69 90bf 8a20 d6be
00000270: fda4 26bf 6804 64bf aab8 2ebf 3cd1 ef3e
00000280: 8925 c03e c039 153f b59b 21bf 35af 09bf
00000290: df93 43bf a892 e7bd d653 f53e c5ee b7bd
000002a0: 0e0c 7f3d b8cb c33e 0db3 eebd a3ae eebd
000002b0: 7774 133f b67c 1f3c 13b2 1cbe 5ff6 16bf
000002c0: a8ed d53c 3326 f53e f888 6bbe 5da7 803e
000002d0: 6996 5bbf 6ea8 643e 6b8d ca3e 271a 073f
000002e0: ac2f c83d b402 bf3e 57dd 3c3e bf82 6e3e
000002f0: 4c17 bc3e b551 bb3e 5ea5 503e 106a 053e
00000300: 6a50 433e 25d6 b2bf b9f7 e0bc 25ed 123e
00000310: a058 aa3e 393a 9ebf 71eb da3e 7f6c 48bf
00000320: e4d1 c93d 8643 c73e d969 42bf c8e3 d13c
00000330: 8b3a 1ebf 0443 debd bdd1 9e3e b60a e4be
00000340: bd50 9c3e 9bec ee3d b56a aa3e f7cb 88bf
00000350: eabe 3dbf bfdb af3e b3c8 d63e 16db 15bf
00000360: 79f2 56bf 2686 35be 5190 4cbf de1a 46bf
00000370: bf83 70bf f809 78bf c8dc 2fbf 5d9f af3e
00000380: a98c 823e 2a35 143f b833 59bf f1e9 03bf
00000390: e8f2 9dbf e8d1 30bd a581 8c3e 926c 6bbd
000003a0: 170d 75be ddea 143e 5b7b 00bf d852 01bf
000003b0: 7b35 133f 2813 b8bd 7bb4 b1be 662e 06bf
000003c0: 9683 2cbe 1ac9 9f3e 3dff 1fbf 561b 573d
000003d0: 4ade babf 3ee9 35be 90ba 1b3e da3b 9e3e
000003e0: 54aa ebbd d551 d1bd 0d34 4c3e fc51 803d
000003f0: 12b2 723e 977c 5a3e 0f86 843e 336e 533e
0.20407358 -0.72790253 0.30213118 0.3107342 0.18115056 -0.65458584 -0.02295359 -1.8227997
0.1212576 0.23443158 -0.023467505 0.10030272 -1.8007895 -0.10027799 0.28610912 -1.4697294
0.20660865 0.23351632 0.16039883 -0.4180475 -1.8558755 0.17075227 0.1477578 -0.24273671
-1.093789 -0.7210733 -0.97162634 -0.38196513 -1.9407231 -1.98288 -0.92608124 0.29786816
0.35703906 0.28589004 -1.9255478 -1.4811577 -0.6077075 -0.04323784 -0.00560026 -0.10198576
-0.19022363 0.091489494 -1.699884 -0.097962156 -0.046528447 -0.09347165 -0.17042066 -1.0059173
-0.26592284 0.2276998 -0.20616749 0.17339516 -0.7810537 -0.118399225 0.13235497 0.19911714
0.022637293 0.019041454 0.3897322 -0.03601265 0.28825313 0.082457945 -0.1963494 0.023371039
0.31118196 -0.008786096 0.083463095 0.24204196 0.25226077 -0.15846676 0.04860462 0.22220632
0.20024909 0.44779232 0.46905094 0.049850214 -1.1508507 0.013520077 0.45152494 -0.31107926
0.3558734 0.38619342 -0.35278448 0.8728031 -0.16585313 0.2414763 0.2906445 0.5299882
-2.038998 -2.087461 -2.5465214 0.5226598 0.36323118 -0.49114677 -1.5599936 -0.047966033
0.28823274 0.34072196 0.033314593 0.1389443 0.48477447 -0.014025481 0.17535298 -0.16163388
-0.24570182 -0.42418012 -0.1907117 -0.7450602 0.22756359 -0.043820947 -0.0011199132 -2.5034575
-0.18123513 0.32338294 0.45771247 -0.16947043 0.8632217 0.035203014 0.29068497 0.39527643
-0.0377748 -0.051488448 0.3915813 -0.26600015 -0.18243045 -0.024706073 -0.027721398 -0.09812313
0.3314449 -1.0626827 0.29992428 0.13078281 0.23324595 -0.7282293 0.4548283 -0.44495958
0.2821079 0.49302655 -0.17245579 0.1385324 -0.6276198 0.03001815 0.4074365 -0.052469756
0.41640216 0.28866208 0.26794553 -0.5902531 -0.443649 0.43112424 0.5108623 0.026282307
-0.6145083 -0.4593596 -1.1282345 -0.418217 -0.650955 -0.89069223 -0.68250525 0.4683932
0.37528637 0.58291245 -0.63128215 -0.5378297 -0.7639751 -0.11307269 0.47915524 -0.089810885
0.062267356 0.38241363 -0.11655245 -0.11654403 0.57599586 0.009734323 -0.15302305 -0.5896968
0.0261143 0.47880706 -0.23001468 0.25127688 -0.8577638 0.22329876 0.39561018 0.5277428
0.09774718 0.3730675 0.1844381 0.23292063 0.36736524 0.36585775 0.20375583 0.13028741
0.19073644 -1.3971602 -0.027461873 0.14348276 0.3327074 -1.2361518 0.42757753 -0.7829055
0.098544866 0.38918704 -0.7594276 0.02562131 -0.6180808 -0.10852626 0.31019393 -0.44539422
0.30530348 0.11666223 0.33284536 -1.0687245 -0.74119437 0.3434734 0.41949996 -0.58537424
-0.83963734 -0.17726955 -0.7990771 -0.77384746 -0.9395103 -0.9689021 -0.6869626 0.34301272
0.2549794 0.5789362 -0.8484454 -0.5152884 -1.2339754 -0.043168932 0.2744266 -0.057476588
-0.23930775 0.14542718 -0.50188226 -0.50517035 0.5750348 -0.08988029 -0.34708008 -0.5241455
-0.16847071 0.31208116 -0.6249884 0.052516304 -1.4599087 -0.17764756 0.15207887 0.30905038
-0.11507097 -0.10220686 0.19941731 0.06265637 0.23700741 0.2133659 0.2588353 0.20647506

fc2.bias f4 [64]
00000000: 00b1 b43e 7fe8 1e3e 5308 9f3e 0a5c 803e
00000010: 29de 1cbe a7b3 973e 1ae1 9f3e 6e5d 163e
00000020: d5ed 22be 53d4 203d 1a7e e53e b5b3 fb3d
00000030: cbc0 1ebe e1a3 e3bd e1d1 823e 5e67 7f3d
00000040: 0ffc 50be 8ff2 3dbe 5b18 09be a588 e33e
00000050: 3b68 15be 9a61 c13e d0d2 a03e 9479 9c3d
00000060: 01c7 ff3d fe89 223d 2046 a6bc f4b4 ebbc
00000070: 75f4 8f3c b4d9 8a3e c765 143f bcaf 473d
00000080: 77bb debd 4ccf a33e 6188 31be 423e 073e
00000090: 508f c0bd 7a66 98be c2ed c53e 92a4 953e
000000a0: 483f b93e 3ce9 a63d 5895 2cbe a022 b33d
000000b0: ecd8 f2bd d018 b43e f4a4 33bd a661 7e3e
000000c0: a30b c2bd af64 e83d eba3 bcbd 00d7 d93e
000000d0: 578f 113f 6b40 823e 2bc7 fa3e e658 c8bd
000000e0: f3ac c43e a285 14bd 0bf9 f6bc 08ac 4bbd
000000f0: a5f4 d93d 2d49 1bbb e03d a0bd 8f82 cf3b
0.3529129 0.15518378 0.31061038 0.2507022 -0.15319122 0.2962925 0.31226426 0.14684078
-0.15911038 0.03926499 0.4482277 0.12290136 -0.15503232 -0.11115242 0.2555075 0.062354438
-0.20408653 -0.1854956 -0.13388197 0.4444019 -0.14590542 0.37769777 0.31410837 0.07640377
0.12489129 0.03968238 -0.02029711 -0.028772809 0.01757262 0.2711922 0.579678 0.048751578
-0.108756 0.31994092 -0.1733718 0.13207343 -0.09402335 -0.29765683 0.38657957 0.2922712
0.36181092 0.08149955 -0.16853845 0.087468386 -0.11857781 0.3517518 -0.043858483 0.24841937
-0.09474876 0.11347329 -0.09210952 0.42546844 0.56859344 0.25439772 0.48980078 -0.09782581
0.384132 -0.036260255 -0.03014805 -0.04972461 0.10642365 -0.002369474 -0.07824302 0.0063327025

fc3.weight f4 [2, 64]
00000000: 0a19 fb3e 7e3e 35bf 54e7 343f 3bf6 623f
00000010: 40dc 32bd ccb5 153f e019 263f 3db1 13bc
00000020: 10f2 50bf 02ad 6a3f 6ca9 183f 57a0 153f
00000030: f0ea 54bd 0a38 9cbe 574f 303f df5b 72bc
00000040: 8d54 bfbd 1fe8 92bf 0a85 20bd 81e3 6c3f
00000050: 0e73 97bf 4d1d 153f 469c 463f eb2e 3fbc
00000060: fba4 7ebe 2420 35bc c070 4fbd 31a2 1e3d
00000070: b9fe c0bd c9a2 483f 59df 113f 844d b63b
00000080: 402d 0abc 5f02 573f 89f3 03bd 6b5d 4ebf
00000090: 6a2d b9bd c9c2 5abf 560f 023f cd87 4e3f
000000a0: 0ba8 b93e 356d 50bd 4e2b 55bf e1e4 34bd
000000b0: 64f7 493d ec20 30bf 002e ad3a 214f 0f3f
000000c0: a556 47be dfb8 613f a246 963c fa57 783f
000000d0: 7914 173f 2f44 233f 6bcd 223f 1910 353d
000000e0: 5fdc 253f c551 d4bd 17f9 95bd 6ca5 5a3d
000000f0: 9206 553f 89d1 823f 5004 403b bfdc 63bc
00000100: 7441 3d3f 553a 843d b170 2f3f 175c a63e
00000110: fcfc 27bd a68d 083f 50c8 383f eff9 30bf
00000120: e6d1 dbbe f186 753f 3edc 3b3f d9da 2b3f
00000130: b71b b1bb 3629 aabf d455 d33e 7c5a 5bbd
00000140: 29d3 cdbf 49ae 503e 599d c2ba eb6f d53e
00000150: 27c1 1bbd 5ab3 3b3f 4950 123f 42a0 d7bc
00000160: b955 1f3f 10f9 74bd f69a ba3d efb7 0cbd
00000170: bf10 923d 54ff e43e 8202 5d3f f67e a8bd
00000180: 2a24 473b dd04 1b3f 07ab 74bd 4664 51bf
00000190: 78ab 0fbd e9b4 62bf 2abc 473f 8de8 153f
000001a0: 2062 653f 062d 0fbd 7899 41bf e0b6 523c
000001b0: 641f 533c 3e37 c23e 5a8a ec3d fde6 2a3f
000001c0: 4447 cabf 0e2d 3e3f b06e cbbc fd0b aa3e
000001d0: d312 3b3f f3a2 3e3f 9cf8 133f 0b0a 9bbc
000001e0: 33b2 033f 1690 163e a6d0 e33c 7e85 e03d
000001f0: 7f1c 053f 0cae 563f d845 90bd 2502 d3bc
0.4904254 -0.7079848 0.7066548 0.8865697 -0.043667078 0.58480525 0.6488323 -0.009014425
-0.8161936 0.9167024 0.5963352 0.58447784 -0.051981866 -0.30511504 0.68871063 -0.014792412
-0.09342299 -1.1477088 -0.039189376 0.92534643 -1.1831987 0.58247834 0.77582204 -0.011668901
-0.24867623 -0.011055026 -0.050644636 0.038728897 -0.094235845 0.7837339 0.56981426 0.00556344
-0.00843364 0.83987993 -0.032214675 -0.80611295 -0.09041865 -0.8545347 0.5080465 0.80675966
0.3626102 -0.050885398 -0.832692 -0.04416359 0.049308196 -0.68800235 0.0013212562 0.55980116
-0.19466646 0.88172716 0.018344227 0.9700924 0.59015614 0.63775915 0.6359469 0.044204805
0.64789385 -0.10367159 -0.07322901 0.053380415 0.8321315 1.0220195 0.0029299445 -0.01390761
0.73928 0.064564385 0.6853133 0.32492134 -0.04101275 0.5334114 0.7218065 -0.6913137
-0.42933577 0.9590903 0.7338294 0.6713081 -0.005404915 -1.3293827 0.4127642 -0.05355309
-1.6080066 0.20378985 -0.0014847919 0.4168695 -0.038026 0.73320544 0.57153755 -0.026321534
0.6224018 -0.059807837 0.09111588 -0.0343551 0.071321 0.4472605 0.8633195 -0.08227341
0.0030386546 0.60554296 -0.059733417 -0.8179363 -0.035075635 -0.88557297 0.7802149 0.5855797
0.8960285 -0.034955047 -0.756248 0.012860984 0.012885902 0.3793277 0.11549826 0.6675871
-1.5802999 0.742875 -0.024833053 0.3321227 0.730756 0.7446739 0.5780122 -0.018925687
0.51443785 0.14703402 0.027809452 0.109629616 0.51996607 0.83859324 -0.07044572 -0.025757859

fc3.bias f4 [2]
00000000: 490a a03e b7ad 773e
0.31257847 0.2418736

fc1.weight f4 [64, 4]
00000000: 677e 6d3e 55ae 173f bf89 563e 3c98 d63e
00000010: 0c7e 36bf 6506 3c3e aa37 843f 7f15 c63e
00000020: 6633 ec3e 3f88 bbbe a555 a13e 2bcf 283e
00000030: bfc5 943e 550a e73d 53fc 403e 1ec9 85bd
00000040: b3f2 913e 1c8e a03d 1ed3 aebe 102a 053e
00000050: 5be7 5cbf c5bb 043e e5ee 803f 3ff6 ad3e
00000060: a7c2 62bf ffcf 18bf 9747 11bf d9a1 a4be
00000070: f9d3 2ebf ad73 6abf 7f0c 04bb 264b 1bbf
00000080: 6880 5a3e 1254 dcbc a610 45be 3069 c63e
00000090: 69e1 c1bd 18c7 b63e 8eb9 583e 398f e9bc
000000a0: ce6e 983e 8ed7 1a3e 9b11 bf3f 3855 333f
000000b0: 5339 8c3e a23d 98be 654e b93e 55a4 763e
000000c0: 56ab bcbe c098 20bf ffb2 dbbf ef0f e7be
000000d0: 9c5b c4be d60e d23e d878 133e cc13 543e
000000e0: 2dd9 3a3d 8557 83bd 3828 fe3e 9e14 5abe
000000f0: dde6 22bf f649 62bf b43d 83be a77f 1fbf
00000100: b3c6 3c3d 171e 92bd e0ab bd3e 5c72 95be
00000110: 92db bbbe 3f00 bfbe 8108 a63e 1d87 db3d
00000120: 51b9 0c3f 3053 b0be bfcb 8dbf a9ca f3be
00000130: d1fd 2e3e 3ff0 243f e05c b73f 54b3 ef3e
00000140: ecd8 86bf 91b2 43bf cea3 a7bd 3177 f8be
00000150: 3acd 6e3e a67c 0cbe a844 7a3e 3532 51be
00000160: b279 f8be 08c4 5e3d 2a7d 463d aec6 0dbe
00000170: c3f7 243f e9d0 c23e 27d4 46bf 6ad0 8cbd
00000180: 3dfa 683f a31f a5be 75fc bfbf b262 eabe
00000190: 167f 35bd 7379 04be fb17 c2bf 66f3 34bf
000001a0: 0b5d a53e c3c8 c4be 986c dcbf d468 25bf
000001b0: bb50 3abf 07ef dabd a836 e93f 7e26 623e
000001c0: 02cd dbbe bdfd 36bf c2e3 85bf 957b febe
000001d0: d017 6fbe b45b 3bbf 09aa b0bf 6052 05bf
000001e0: 18d5 143f 33aa 98be 48fd a5bf 6230 0ebf
000001f0: 1e8f 16be da3b 2cbe 5f0a 09bf 7923 b5be
00000200: 9778 913e 562a cabc 487d 2d3f e9c7 343e
00000210: b7ae 9cbf c852 a43e 89b6 273e 93bb 233e
00000220: 5ce3 b2bf 6c20 15bf 3c1f 0f3f 1fa4 afbe
00000230: 0781 c3be d933 6dbf d292 27bf fd87 20bf
00000240: 552e 9f3b e6d1 b63e f652 ca3f ab99 f03e
00000250: 8ff9 d83e db37 dbbe 3fdf c03d 39a9 7cbe
00000260: c627 0abf bd76 37bf fc28 2b3e 2efc cfbe
00000270: 45a1 ef3e 701e 233e 0297 2fbf 7c99 eabe
00000280: 831a 7b3f 2175 a73e ca9b fbbe 14f6 813d
00000290: 37b4 063f 2c06 99be d158 83bf 48b5 a63e
000002a0: 958b 82bf 0f47 3cbf eef9 82bf be8e 00bf
000002b0: c58e 553f 8b8e b23d 8a7f 65bf eb57 493d
000002c0: fd60 9dbf 3a82 823e 99cd 283f 7404 8cbe
000002d0: fbfe 533f 7e17 9b3e 947c 52be 3f40 403e
000002e0: 9ea2 1c3f 03c3 133f c825 1e3f a867 c93e
000002f0: f54f 8e3e b8cd 09be 9859 a1bf cde2 c4be
00000300: 11fc 1c3f 0b31 213f 59f0 e6bb 8524 3f3e
00000310: 79dd 0cbe 9612 84bd d6c3 473e 8729 703e
00000320: 2ea1 89bf 66ef 21be 3db9 c33f 82f1 903e
00000330: 9539 ca3e 9f4c e9be 5e65 3dbf e310 73be
00000340: ab51 d23d da8a 973e 83a6 c83f 0006 083f
00000350: 7c85 37bf e57c 12bf 182f bfbe e067 d33e
00000360: 0143 d83c d001 cebd 84fb 923d 689c 3fbe
00000370: ed41 f8be f53f d23e fa40 20be 716a 113d
00000380: 7eab febe 5255 ab3e 58f4 c13e f498 3a3e
00000390: 3885 89be 5193 25bf 2fab 5bbf 7805 6d3e
000003a0: 3c57 2b3e 378d 0d3f 7691 d03e cec6 903d
000003b0: 1d23 d73e 5808 fdbe d39d 61bf bf8b 84be
000003c0: 9850 723e 9870 47be fc8f 38bf 14c9 b9be
000003d0: b3ee 7cbc cf3f cbbe c9bc 11bf 91c7 773e
000003e0: 77ca 13bf 7a94 763e 62df b7be ac37 57be
000003f0: 97e4 543c b9de 5fbe 5b7f 0dbf 1022 83be
0.2319275 0.59250385 0.20950983 0.4191302 -0.7128608 0.18361814 1.0329487 0.38688275
0.46132964 -0.36627385 0.31510654 0.16485278 0.29057118 0.112812676 0.18846254 -0.06532501
0.28505477 0.07839605 -0.34145445 0.13004327 -0.8629052 0.12962253 1.0072905 0.33976933
-0.88578266 -0.59692377 -0.5674986 -0.3215473 -0.68292195 -0.9158276 -0.002014905 -0.6066154
0.21338046 -0.026895557 -0.19244632 0.38752127 -0.09466822 0.3569877 0.21164533 -0.028510677
0.29772037 0.1512129 1.4927248 0.7005191 0.27387485 -0.29734522 0.36192623 0.24086125
-0.3684947 -0.6273308 -1.7164 -0.45129344 -0.38351142 0.41026944 0.14401567 0.20710677
0.04561727 -0.064131774 0.4964006 -0.21296927 -0.6363352 -0.88394105 -0.25633013 -0.62304157
0.04608793 -0.071346454 0.37045193 -0.29188812 -0.36690956 -0.37304875 0.32428363 0.1071913
0.5497027 -0.34438467 -1.1077803 -0.47615555 0.17089011 0.64429086 1.4325218 0.46816504
-1.0534949 -0.76444346 -0.0818554 -0.48528436 0.23320475 -0.13719425 0.24440253 -0.20429309
-0.48530346 0.05438617 0.04845921 -0.13845322 0.64440554 0.3805001 -0.7766747 -0.06875689
0.91006833 -0.322507 -1.4998919 -0.45778424 -0.04431065 -0.12936954 -1.5163568 -0.70683897
0.3229755 -0.3843442 -1.722064 -0.6461308 -0.72779435 -0.10690122 1.8219805 0.22084996
-0.42929846 -0.71480924 -1.0460131 -0.4970366 -0.23348927 -0.731868 -1.3801891 -0.5207882
0.58137655 -0.29817352 -1.296792 -0.55542576 -0.14703032 -0.16819707 -0.5353145 -0.35378626
0.28412315 -0.02467839 0.6776929 0.17654385 -1.2240819 0.32094407 0.16378225 0.15989523
-1.3975635 -0.58252597 0.55907035 -0.34304902 -0.38184378 -0.9265724 -0.65458405 -0.627075
0.004857818 0.35707015 1.5806568 0.4699224 0.42377898 -0.42816052 0.09417581 -0.24673928
-0.5396694 -0.71665555 0.16714853 -0.40622085 0.46802726 0.1592958 -0.68589795 -0.45820224
0.9808733 0.3270655 -0.49142295 0.06345764 0.52618736 -0.2988752 -1.026148 0.32560182
-1.0198847 -0.73545927 -1.0232522 -0.5021781 0.83420974 0.08718594 -0.89647734 0.04915611
-1.2295223 0.2548998 0.6593872 -0.27347147 0.82810944 0.3029136 -0.20555335 0.18774508
0.61185634 0.5771944 0.617764 0.39336896 0.27795377 -0.13457382 -1.2605467 -0.38454285
0.6132212 0.6296546 -0.0070476946 0.18666275 -0.1375636 -0.064488575 0.19508299 0.23453341
-1.0752313 -0.1581398 1.5290905 0.28309256 0.39497057 -0.4556627 -0.739828 -0.2373691
0.10269483 0.29598123 1.5675815 0.53134155 -0.71688056 -0.57221824 -0.37340617 0.41290188
0.026399137 -0.100589395 0.07176879 -0.18712008 -0.48487797 0.4106442 -0.15649787 0.0355019
-0.49740213 0.33463532 0.37881732 0.1822241 -0.2685945 -0.6467791 -0.8580808 0.23146617
0.16732496 0.552936 0.40735978 0.07069169 0.42018977 -0.49420428 -0.88131446 -0.25887868
0.23663557 -0.19476545 -0.720947 -0.36286223 -0.01543777 -0.3969712 -0.5692869 0.24197222
-0.5773081 0.24080077 -0.35912615 -0.21017331 0.012993953 -0.21862306 -0.55272454 -0.25611925

fc1.bias f4 [64]
00000000: abea 113f dba7 b6be d14d 283f ae97 023f
00000010: 2ffe 3d3f 2055 d7be 6e16 ec3e cdd1 02bd
00000020: 52a2 193f 3cba 5a3f 2754 3fbe 883d c03e
00000030: c0ab 8dbc 8cc1 d5be 40c0 273f cd1d e33b
00000040: 6b17 393f 1358 3f3f 28a7 4a3f ff82 ee3c
00000050: 73b2 04bd 4582 053f 093c 1b3f b0e4 1abf
00000060: 790b 37be cf8c 9bbe 2f8c d2be 99da a0be
00000070: 19cd f9bc f6ce c5bc 157a 8ebe 66a6 523f
00000080: b765 523f d094 3f3e ee6b a8bd 4726 d0bc
00000090: 5f92 05bf 58ad 04bf a1c3 b23e e303 10be
000000a0: 6988 c13c d3c2 8f3e 8393 f2bc 9a50 19bc
000000b0: 852d 243e f565 243d e697 bc3c 9be9 92be
000000c0: 9eea 78be cd41 503f 1972 98be 3a0f f43e
000000d0: 3f86 aebe d0cf 513e 1a56 563f 891b 2a3f
000000e0: 7ad9 ddbe df3e ea3e d26e 3e3f b85d 063f
000000f0: b3b8 203f 5ae7 573f 7cb7 833e f7ea 123f
0.569987 -0.3567494 0.6574374 0.51012695 0.7421598 -0.42057133 0.46110862 -0.031938363
0.60013306 0.8544042 -0.18684445 0.37546945 -0.01729381 -0.41749227 0.65527725 0.0069310428
0.7230136 0.74743766 0.7916131 0.029115198 -0.032396745 0.521519 0.6063848 -0.605052
-0.1787547 -0.30380866 -0.41122577 -0.31416777 -0.030493306 -0.024146538 -0.27827516 0.82285154
0.82186455 0.18709111 -0.08223711 -0.025408877 -0.5217647 -0.51827 0.34914878 -0.14063983
0.023624616 0.28078327 -0.029611355 -0.009357596 0.1603299 0.040136296 0.02302165 -0.28693852
-0.2430825 0.81350404 -0.2977455 0.47667867 -0.34086797 0.2048943 0.8372513 0.66448265
-0.43329984 0.45751092 0.7438785 0.52486753 0.6278183 0.8433739 0.25725925 0.5738978

fc2.weight f4 [64, 64]
00000000: dd08 533e d257 3abf 5950 9b3e d000 a03e
00000010: 120a 3b3e f092 27bf 6357 b9bc 0517 e9bf
00000020: aa30 fb3d d210 723e 8d2e b6bc 29c3 cf3d
00000030: c834 e6bf 8c5e cdbd ad5b 933e 74f0 bbbf
00000040: 1839 553e b617 6f3e 4719 253e a9a0 d4be
00000050: f038 edbf 2c62 303e 22ec 173e b87b 77be
00000060: 3805 8cbf 1b39 39bf 81bc 78bf ef90 c3be
00000070: bf1e f8bf 8a82 fdbf f2e4 6ebf 89fe 983e
00000080: 6eac b73e d938 933e 6f4d f6bf fc63 bdbf
00000090: 7c7b 1bbf 291a 31bd 3dc1 afbb 810b cfbd
000000a0: 9069 41be f8ef bb3d d53d d9bf 5b95 c6bd
000000b0: fce3 39bd 2594 bcbd e781 2cbe 45f6 80bf
000000c0: b55b 87be b3ab 6a3e 921d 53be 59ba 313e
000000d0: 1f56 47bf 4e53 f1bd 5401 093e a5fb 4d3e
000000e0: d871 b93c 2302 9e3c d596 c83e 9e15 13bd
000000f0: a410 943e f41b aa3d 5815 48be a5e7 c43c
00000100: 14f9 9e3e 32e8 50bc 0d86 a93d f8b8 773e
00000110: 86f2 803e 3524 2abe 9dd5 363d 8697 5d3e
00000120: e199 4c3e 3ecf e43e 4bf4 ef3e e5d0 483d
00000130: 240a 94bf 5083 5d3c 5c6a e63e 6e25 a2be
00000140: bf6a b53e bed1 c33e f522 b5be 6323 5f3f
00000150: ccc4 2fbe cc32 763e 821a 933e 7c69 073f
00000160: 2f7b 02c0 8e2a 06c0 985e 23c0 c5ac 033f
00000170: 9bff b63e 8374 febe deb1 c7bf cfd0 4cbd
00000180: c948 933e c256 ac3e 5529 e13c bf61 083e
00000190: a5be f73e 22cb 65bc 9956 2f3e 4845 25be
000001a0: d72a 7cbe 754a d9be 8859 49be 83d3 3ebf
000001b0: ca44 643e 56f7 35bd 9a63 feba 0600 20c0
000001c0: 760a 3abe 7cab a43e 2edf e63e 5d21 2fbe
000001d0: 28c4 5c3f 1a19 fc3c 0d03 943e d287 c93e
000001e0: c0b9 1abd f547 63bd bd5d c83e bbfe 88be
000001f0: 8940 3cbe c3ac dbbc 6161 febc 4236 cdbd
00000200: a25f a93e ad25 87bf ae51 993e 8843 043e
00000210: ebb2 6d3e 44d9 38bf 72cc e93e 4775 e2be
00000220: 994f 903e 111f fc3e 0247 30be a610 0e3e
00000230: 9e0b 20bf a0e8 f53c 6083 d03e 1a85 4cbd
00000240: bf0e d53e 8f51 943e fa50 883e 222c 17bf
00000250: 3ec0 e1be bb35 dc3e ef0e 033f ddfe b73c
00000260: 5163 1ebf 948e ecbe 0435 91bf 4f18 d3be
00000270: 0ffe 25bf 1c63 63bf 61e7 30bf 8b22 f03e
00000280: a0d5 bf3e 88d7 153f f4e0 20bf 730a 09bf
00000290: 1fa4 43bf a892 e7bd bf45 f63e c0b9 bfbd
000002a0: 804a 773d de29 c33e 52fd e8bd f15a f3bd
000002b0: 5509 143f 3b9d 043c 95cd 1dbe dd4a 19bf
000002c0: 237c c53c 798b f53e e067 67be ce3d 803e
000002d0: 864d 5bbf 081d 673e 8791 ca3e 615f 073f
000002e0: ac2f c83d 6ee0 bf3e 77a6 3b3e a4c0 6d3e
000002f0: 8590 bb3e c597 bb3e 0891 523e 7bde 053e
00000300: 9280 443e 25d6 b2bf c056 e0bc 5161 133e
00000310: 636c aa3e 393a 9ebf 43f2 d83e 38e0 49bf
00000320: d352 ca3d ad54 c73e 82e2 41bf d9a0 d33c
00000330: bc94 1fbf 0443 debd 41bb 9e3e 01cb e6be
00000340: 072d 9c3e 6acd eb3d 1e17 aa3e 3469 88bf
00000350: ed2b 3fbf 87cc af3e fc5a d63e 668b 16bf
00000360: fcba 57bf 5026 3fbe 5190 4cbf d868 46bf
00000370: dddf 71bf 216e 79bf a01e 36bf 1929 af3e
00000380: 08b8 823e 1e4c 133f 40ca 5abf 6342 05bf
00000390: 07f8 9dbf e8d1 30bd 3379 8a3e 41bf 77bd
000003a0: 4d16 74be cc0a 153e 5ede 01bf 1a30 01bf
000003b0: 5c6e 123f f87b b5bd 6aad b0be 4b4b 07bf
000003c0: 0e80 2cbe 0da9 9f3e 97e3 21bf bba9 523d
000003d0: 5773 babf f913 3cbe a65b 1b3e cd1c 9e3e
000003e0: 54aa ebbd dbf1 d7bd 81ea 4c3e 8aff 7b3d
000003f0: b8f9 713e 49a8 593e bfab 833e 1e6a 523e
0.2060885 -0.72790253 0.30334738 0.3125062 0.1826556 -0.65458584 -0.022624677 -1.821015
0.12265141 0.23639229 -0.022238994 0.10144646 -1.7984858 -0.10027799 0.2878088 -1.4682755
0.20822561 0.23348889 0.16122924 -0.41528824 -1.8533001 0.1722495 0.14836171 -0.24168289
-1.0939093 -0.7235276 -0.97162634 -0.38196513 -1.9384383 -1.9805462 -0.9331809 0.29881695
0.3587374 0.2875431 -1.9242381 -1.4796138 -0.607353 -0.04323784 -0.005363612 -0.10109616
-0.18887925 0.0917663 -1.6971995 -0.09696456 -0.04538344 -0.09207944 -0.16846429 -1.0075155
-0.26437154 0.2291706 -0.20616749 0.17356242 -0.77865785 -0.11783467 0.13379413 0.20115526
0.022637293 0.019288128 0.39177576 -0.035909288 0.28918946 0.08306113 -0.19539392 0.024036238
0.31049407 -0.012750672 0.08277521 0.24191654 0.2518503 -0.16615374 0.04463731 0.21639833
0.19980575 0.44689363 0.46866068 0.049027342 -1.1565595 0.013520077 0.4500302 -0.31669182
0.35433003 0.38245958 -0.35378233 0.8716337 -0.17164916 0.24042815 0.2873116 0.5289533
-2.0387685 -2.0963473 -2.5526485 0.514355 0.35741886 -0.49698266 -1.5601156 -0.050003823
0.28766468 0.3365994 0.027485529 0.13318537 0.48387638 -0.014025481 0.17122878 -0.1613971
-0.24625717 -0.4243962 -0.1966306 -0.7454149 0.22291866 -0.04442533 -0.0019408346 -2.5000014
-0.18168053 0.32162082 0.45092148 -0.17102571 0.8623681 0.030773688 0.28908578 0.39361435
-0.0377748 -0.055488545 0.39134017 -0.26756844 -0.18383993 -0.026815778 -0.031052293 -0.100201145
0.33080775 -1.0558373 0.2994513 0.12916386 0.23212783 -0.7220652 0.45663792 -0.442301
0.28185728 0.49242452 -0.17214587 0.13873538 -0.62517726 0.03001815 0.4072523 -0.049931623
0.41612813 0.28968474 0.2662428 -0.59051716 -0.44091982 0.43009743 0.5119466 0.022460395
-0.61870295 -0.46202528 -1.1344304 -0.41229483 -0.6484079 -0.88823104 -0.69103056 0.46901354
0.3746767 0.58532 -0.6284325 -0.5353157 -0.76422304 -0.11307269 0.48100087 -0.09361601
0.060373783 0.3811788 -0.11376442 -0.1188258 0.5782674 0.008094127 -0.15410455 -0.5987986
0.024107045 0.47957972 -0.22598219 0.25047153 -0.85665166 0.22569668 0.39564154 0.5287991
0.09774718 0.37475914 0.1832522 0.23218018 0.36633697 0.36639228 0.20563138 0.13073151
0.1918967 -1.3971602 -0.027385116 0.14392592 0.33285818 -1.2361518 0.4237233 -0.78857756
0.09879079 0.3893179 -0.7573625 0.025833534 -0.62336326 -0.10852626 0.31002238 -0.45076755
0.30503103 0.11513789 0.33220762 -1.0657105 -0.746764 0.3433573 0.4186629 -0.58806455
-0.8426969 -0.18666959 -0.7990771 -0.7750373 -0.94482213 -0.9743367 -0.7114048 0.34211043
0.2553103 0.5753802 -0.8546486 -0.52054423 -1.2341317 -0.043168932 0.27045593 -0.06048513
-0.23836632 0.145549 -0.5072993 -0.5046402 0.57199645 -0.08861536 -0.34507304 -0.5284926
-0.16845724 0.31183663 -0.632379 0.0514314 -1.4566449 -0.18366994 0.1517168 0.30881348
-0.11507097 -0.10544177 0.20011331 0.061522998 0.23630416 0.21255602 0.2571697 0.20548293

fc2.bias f4 [64]
00000000: 9673 b53e 448d 1d3e fc05 9f3e 843d 803e
00000010: 29de 1cbe bebe 973e a530 a03e 55eb 163e
00000020: aeb1 1ebe d3a5 1e3d 62af e53e 2814 ff3d
00000030: cbc0 1ebe fa70 eabd e554 823e 5e67 7f3d
00000040: f4db 50be 0627 3cbe 5b18 09be 76e0 e23e
00000050: eb6b 14be fe6f c13e 9935 a13e 9479 9c3d
00000060: a399 003e fe89 223d 2046 a6bc f4b4 ebbc
00000070: 75f4 8f3c 8c88 8a3e ad6c 143f bcaf 473d
00000080: 77bb debd e70e a43e 6188 31be ab74 063e
00000090: 508f c0bd 2786 98be 6ab2 c53e ab61 953e
000000a0: 801d b93e 3ce9 a63d 3658 25be a022 b33d
000000b0: ecd8 f2bd 1c06 b33e f4a4 33bd 8253 7f3e
000000c0: a30b c2bd 43e1 ea3d eba3 bcbd c0a5 d93e
000000d0: 5396 113f 87fe 823e ce4f fa3e e658 c8bd
000000e0: 5d33 c43e 171f 15bd 0bf9 f6bc 08ac 4bbd
000000f0: 79d3 db3d 808f ffba e03d a0bd 8f82 cf3b
0.35439748 0.1538592 0.31059253 0.25046933 -0.15319122 0.29637712 0.31287113 0.1473821
-0.15497467 0.03873236 0.4486037 0.124550164 -0.15503232 -0.1144733 0.25455394 0.062354438
-0.20396405 -0.18374261 -0.13388197 0.44311875 -0.14494292 0.37780756 0.31486204 0.07640377
0.12558608 0.03968238 -0.02029711 -0.028772809 0.01757262 0.27057302 0.57978326 0.048751578
-0.108756 0.3204262 -0.1733718 0.13130443 -0.09402335 -0.2978985 0.38612682 0.29176077
0.3615532 0.08149955 -0.16146931 0.087468386 -0.11857781 0.349656 -0.043858483 0.249342
-0.09474876 0.114687465 -0.09210952 0.4250927 0.5687 0.25584814 0.4888901 -0.09782581
0.38320437 -0.036406603 -0.03014805 -0.04972461 0.107336946 -0.0019497722 -0.07824302 0.0063327025

fc3.weight f4 [2, 64]
00000000: 74af fb3e 6111 35bf e5b3 343f 7c47 633f
00000010: 40dc 32bd 4c7d 153f b9eb 253f 955e 2dbc
00000020: 40f2 50bf d3fc 693f 997c 183f 8bdf 153f
00000030: f0ea 54bd 615f 9bbe d705 303f df5b 72bc
00000040: e6b1 c1bd 73ff 92bf 0a85 20bd cda1 6c3f
00000050: 9e88 97bf 5cf1 143f 48c3 463f eb2e 3fbc
00000060: 5d19 80be 2420 35bc c070 4fbd 31a2 1e3d
00000070: b9fe c0bd 3a93 483f 35b2 113f 844d b63b
00000080: 402d 0abc f103 573f 89f3 03bd 9e39 4ebf
00000090: 6a2d b9bd 960a 5bbf 41e8 013f 5044 4e3f
000000a0: 3851 b93e 356d 50bd 5070 55bf e1e4 34bd
000000b0: 64f7 493d e9f2 2fbf 002e ad3a 21a9 0f3f
000000c0: a556 47be 8518 613f a246 963c 9219 783f
000000d0: dce2 163f 1d93 233f b28d 223f 1910 353d
000000e0: e192 253f d3fd d4bd 17f9 95bd 6ca5 5a3d
000000f0: c455 553f f082 823f 5004 403b bfdc 63bc
00000100: 137c 3d3f ed14 883d 854a 2f3f 22f1 a43e
00000110: fcfc 27bd 9b64 083f 807e 383f cebf 31bf
00000120: e47e e1be 8892 743f 919f 3b3f 11ff 2b3f
00000130: b71b b1bb 27f7 aabf 7941 d33e 7c5a 5bbd
00000140: 29d3 cdbf b058 513e 599d c2ba 097b d53e
00000150: f0af 33bd a680 3b3f c8d3 123f 42a0 d7bc
00000160: 8d92 1f3f 10f9 74bd f69a ba3d efb7 0cbd
00000170: bf10 923d b3e8 e53e 20c8 5c3f f67e a8bd
00000180: 2a24 473b d647 1a3f 07ab 74bd dbdd 51bf
00000190: 78ab 0fbd f2b1 63bf fe97 473f 87f4 153f
000001a0: 8f3a 653f 062d 0fbd b9b5 44bf e0b6 523c
000001b0: 641f 533c 5042 c13e 5a8a ec3d bc0f 2b3f
000001c0: 4447 cabf 664a 3d3f b06e cbbc 81e8 a93e
000001d0: 39d9 3a3f 88b7 3e3f 90f4 133f 0b0a 9bbc
000001e0: 9eb3 033f f1e9 163e a6d0 e33c 7e85 e03d
000001f0: bac4 043f 7d05 563f d845 90bd 2502 d3bc
0.49157298 -0.70729643 0.70587 0.8878095 -0.043667078 0.5839431 0.6481281 -0.010581632
-0.81619644 0.91401404 0.5956512 0.58544225 -0.051981866 -0.30346206 0.6875891 -0.014792412
-0.094577596 -1.1484207 -0.039189376 0.9243439 -1.1838567 0.58180785 0.77641726 -0.011668901
-0.2501935 -0.011055026 -0.050644636 0.038728897 -0.094235845 0.7834965 0.5691255 0.00556344
-0.00843364 0.8399039 -0.032214675 -0.80556667 -0.09041865 -0.8556303 0.50745016 0.80572987
0.36194777 -0.050885398 -0.833745 -0.04416359 0.049308196 -0.68730026 0.0013212562 0.56117445
-0.19466646 0.8792804 0.018344227 0.9691402 0.5893991 0.6389635 0.6349746 0.044204805
0.64677244 -0.10399976 -0.07322901 0.053380415 0.8333399 1.0196209 0.0029299445 -0.01390761
0.7401745 0.06644616 0.6847308 0.3221522 -0.04101275 0.5327851 0.72068024 -0.69433296
-0.44042122 0.9553609 0.73290354 0.67186075 -0.005404915 -1.3356675 0.4126089 -0.05355309
-1.6080066 0.20443988 -0.0014847919 0.4169543 -0.04386896 0.73243177 0.573544 -0.026321534
0.62332994 -0.059807837 0.09111588 -0.0343551 0.071321 0.44904098 0.86242867 -0.08227341
0.0030386546 0.6026586 -0.059733417 -0.8197915 -0.035075635 -0.889434 0.77966297 0.58576244
0.8954248 -0.034955047 -0.76839787 0.012860984 0.012885902 0.37745905 0.11549826 0.66820884
-1.5802999 0.7394165 -0.024833053 0.331852 0.72987705 0.74498796 0.5779505 -0.018925687
0.5144595 0.14737679 0.027809452 0.109629616 0.5186268 0.83602124 -0.07044572 -0.025757859

fc3.bias f4 [2]
00000000: 3c87 9f3e be30 773e
0.31157863 0.24139687

exp_avg f4 [64, 4]
00000000: 07df ddbc de33 bfba 6d47 053b b296 c0bb
00000010: b855 65bc b9c0 28bc ca9d 3cbb 52ea 80bc
00000020: f39f 20bc 658b a13c 424b ad3b 32d9 4839
00000030: 8e43 313c c267 f63c 8c69 b93b cf45 773b
00000040: 0e6c b83b 07e1 043d 5e60 f03b dd50 d93b
00000050: 25dc 08bd 13ba 0dbd 876f a0bb 4e19 3cbc
00000060: 5d29 3a3d c1c6 273d e522 283c be1b 093d
00000070: 95ff 1abd 0567 7ebd 734b 96bb 7022 9b3c
00000080: f8a0 c63b eb50 f53c df94 d93b 085f d13b
00000090: 454c 973a 15d8 013d a996 fb3b 9c2e c73b
000000a0: 42af 8e3c 000b 5dbc 8413 d9ba fe6f 583c
000000b0: 11ae e8b9 e935 823c 99ac 843b 6b07 853b
000000c0: 1537 1abd fa47 8ebd aac6 d6bb 4592 c73c
000000d0: 0000 0000 0000 0000 0000 0000 0000 0000
000000e0: 4d69 e8bb d411 ca3c 20b7 eb3b 1833 bf3b
000000f0: 8318 c93c 4a4f 613c 2fde 183b 20f4 8c3c
00000100: e41d 00bc b7bf d13c 5939 e63b d2a6 543b
00000110: e2d2 5b3d b41a 233d dc92 013c a739 023d
00000120: a394 5abc 3cd2 133d 2c76 0a3c e40c 26bb
00000130: 283e 8c3d aaf3 cc3c 92c1 ddbb c9fa 81bc
00000140: 7001 c9bc e1b7 4fbd 5ed8 8cbb b364 9d3c
00000150: e5d7 b8bb c451 b33c 06f9 c63b c7f1 873b
00000160: ad33 943d 12df 6e3d 92ac 1b3c 0d0e 033d
00000170: 4012 063b 4969 0fbd 745d e2ba e1b4 e23c
00000180: 526d c83d 0305 033c 4427 d139 0f94 133d
00000190: cd60 e6bc 0bf3 cbbc fded 58bb beb4 3cbc
000001a0: d209 15bd f7fa 3cbd f9e4 2ebb c683 6d3c
000001b0: 7718 38bd 0a5c 35bd 87e2 b2bb f591 36bc
000001c0: 84a0 75bd a2a1 bbbd dd6f 0ebc f8fc a53c
000001d0: 9f86 8bbd d6bf ddbd 8787 2abc e207 d83c
000001e0: 01f7 583e 0db4 873d 18ad 803b a123 ae3d
000001f0: 6b36 3d3d 5c65 7b3d f500 413c 4096 c43c
00000200: 9ce2 523c e7c1 263d 94a5 043c 38fb d83b
00000210: 31e6 633d edb2 4d3d 9e0c 5e3c 6fcd 393d
00000220: ab98 33bd 33d4 72bd 46fb a4bb 037f 9b3b
00000230: afdb 37bd 260e 97bd ea5c dabb a32f ad3c
00000240: 2f09 293e beb2 573d 95c5 7d3b cd73 923d
00000250: 0400 0000 0400 0000 0400 0000 0400 0000
00000260: 2922 2d3d 2750 1b3d 7fa3 1b3c 33b0 023d
00000270: d7d9 f53c 6c1b 273c 075a 253a de13 0a3c
00000280: 806b 0e3c c611 0639 ae92 2ebb 40c5 cabb
00000290: 7024 9c3b 82ce dc3c b85c 973b 397b 4aba
000002a0: 25b0 203c 3611 2abc 721e 173a 68f2 d73c
000002b0: 9763 183c 8a5e d8bb a4bb 51bb c357 2438
000002c0: edf5 433d b846 483d 4f90 243c 19b3 cb3c
000002d0: 586d 143c a194 43ba a943 42bb 64e3 87bb
000002e0: c060 ad3c dd42 033c 8542 b9bb 0779 a6bc
000002f0: ead9 723a feae fcb8 064b 543a 008c 9d3b
00000300: 4f93 d43c b3d8 113c 0c4a 5c3a a540 053c
00000310: d4a3 6dbc 1c59 cd3c 4390 013c 2527 9f3b
00000320: 22bb 07bd e581 04bd 50ce 74bb 2d9f ddbb
00000330: 94b2 3fbc ef7b c73c 92c7 b33b 33a4 75bb
00000340: 889c 853d 3613 98bd b01b 86bb 7f02 b23d
00000350: 6456 863c e3ac 8f3c d06e 6d3b e07a 143c
00000360: a40a 12bc 854f e13c 83c6 f83b 4930 823b
00000370: 4b85 6e3d 34f3 7e3d ec60 403c 3bde f23c
00000380: 0000 0000 0000 0000 0000 0000 0000 0000
00000390: 6207 043d 15a3 053d 535b ba3b 0677 503c
000003a0: a271 2939 8db3 993c d3e6 973b b413 443b
000003b0: 6d23 95bc ae66 c93c 28f0 ab3b af0d 10bc
000003c0: a1bb 66bc 6b24 053d 0f72 f03b 379d a0bb
000003d0: a44b 7bbc d8a0 ae3c a35b f23b d120 b63b
000003e0: 09d0 e63b 5aa2 3e3b 3fd0 b23a 2458 de3b
000003f0: b885 b5b9 718c f43c 95d6 a23b e3df aabb
-0.027083887 -0.0014587601 0.0020336763 -0.0058773393 -0.013997488 -0.010299855 -0.0028780573 -0.015736733
-0.00980376 0.019719789 0.0052885124 0.00019154398 0.010819329 0.030078772 0.005658334 0.0037730818
0.0056281155 0.032441165 0.0073357066 0.006631954 -0.03341307 -0.034601282 -0.0048961076 -0.0114806425
0.045449603 0.04096103 0.010262226 0.033473723 -0.0378414 -0.062109966 -0.004586631 0.01893732
0.0060616694 0.029945811 0.0066400613 0.0063895024 0.0011543116 0.031700213 0.007677872 0.0060785543
0.017417554 -0.013491392 -0.0016561602 0.013210295 -0.00044380178 0.015894847 0.0040488956 0.004059722
-0.037650187 -0.06947322 -0.0065544443 0.024361739 0.0 0.0 0.0 0.0
-0.007092631 0.024666704 0.007193461 0.0058349483 0.02454782 0.013751814 0.002332579 0.017206252
-0.0078196265 0.025604112 0.0070258793 0.0032448065 0.05366791 0.039820388 0.007908549 0.031793263
-0.013341102 0.036089167 0.008451026 -0.0025337273 0.06847793 0.025018532 -0.00676746 -0.015866654
-0.024536818 -0.05071247 -0.004298254 0.019213056 -0.005640971 0.021889575 0.0060721664 0.004148695
0.07236419 0.058318205 0.009501593 0.03199582 0.0020457655 -0.035012517 -0.0017270283 0.02767414
0.09786476 0.0079968 0.00039892842 0.03602987 -0.02812233 -0.024896165 -0.0033100836 -0.011517702
-0.03638632 -0.046137776 -0.0026686771 0.014496749 -0.044945206 -0.04427723 -0.005459133 -0.011143197
-0.059967533 -0.091616884 -0.0086936625 0.020262226 -0.06812786 -0.108276054 -0.010408289 0.026370946
0.21187975 0.06626139 0.0039268844 0.085028894 0.046194475 0.06137596 0.011780013 0.023997426
0.012871411 0.040712263 0.0080961175 0.0066217445 0.05563945 0.050219465 0.013552813 0.045361932
-0.043846767 -0.0592844 -0.005034837 0.0047453656 -0.04488724 -0.073757455 -0.0066639083 0.021140879
0.1650741 0.052660696 0.0038722504 0.071509935 6e-45 6e-45 6e-45 6e-45
0.042268906 0.037918236 0.00949943 0.031906318 0.0300111 0.010199409 0.00063076656 0.008427588
0.008692622 0.00012785857 -0.002663772 -0.006188065 0.004765086 0.02695394 0.0046192072 -0.000772405
0.009807621 -0.01038008 0.00057647296 0.026360705 0.009301088 -0.006603067 -0.0032002712 3.918238e-05
0.047841955 0.048895568 0.0100441715 0.024865674 0.009059273 -0.0007460807 -0.002964238 -0.00414698
0.021164298 0.008011547 -0.0056536817 -0.020321382 0.0009264039 -0.00012048891 0.00080983376 0.004807949
0.025949148 0.008901763 0.0008403368 0.008133088 -0.014504392 0.025066905 0.00790793 0.0048569613
-0.033137448 -0.03235044 -0.0037354417 -0.00676336 -0.011700291 0.024351088 0.005486437 -0.0037481904
0.065239966 -0.07425539 -0.004092656 0.08691882 0.016398616 0.017538493 0.003622938 0.009062499
-0.00891367 0.027503738 0.007592024 0.003973041 0.058232587 0.062243655 0.011741858 0.029646983
0.0 0.0 0.0 0.0 0.032233603 0.03262623 0.005687156 0.01272369
0.00016159427 0.018762374 0.0046356707 0.002991897 -0.018205369 0.024585094 0.0052471347 -0.008792325
-0.01408282 0.032505434 0.0073378156 -0.004901554 -0.015337858 0.02131693 0.007396178 0.0055581112
0.0070438427 0.0029088468 0.0013642384 0.0067854095 -0.00034622638 0.029852124 0.004969428 -0.0052146777

exp_avg_sq f4 [64, 4]
00000000: 2bdd 8f3e eb52 313e 1f7c 403a 61ab bb3c
00000010: c50e d23f aaf2 d53f e465 923c 6d30 ee3c
00000020: 6694 193f e9e8 f23e 33e9 7b3b 6977 0d3d
00000030: e8ba 643e 4b24 163e 133a 463a 5638 553c
00000040: 0470 3c3f a855 193f 3b85 9d3b e396 233d
00000050: 3610 a13f a2c5 a53f c29d 633c c143 b93c
00000060: b854 f33e 4892 fe3e 8b5f b13b 1837 b63c
00000070: 3478 c33e 5ec7 c53e b9a3 8b3b 9230 aa3c
00000080: db51 253f e99a 093f 6ae3 903b d44d 173d
00000090: 14ad 743f e46d 4b3f 2e43 d43b 16b3 4c3d
000000a0: 547a de3e 0a29 803e cbe6 963a b722 8f3c
000000b0: 989a 9e3e cf6f 893e d5b2 293b 5f58 2c3c
000000c0: b326 973f eece 9d3f ee56 5a3c a56e 223d
000000d0: 0000 0000 0000 0000 0000 0000 0000 0000
000000e0: 2a19 633f 27d3 383f 4b4b bf3b 21e4 383d
000000f0: fb91 d33d 6729 d03d e204 943a b91d e73b
00000100: 65f3 683f 06ee 3a3f 1664 bc3b eb53 4d3d
00000110: 99c3 e33e 2109 e73e 8179 993b 6806 9f3c
00000120: c572 c43f 5efc 873f 7b4b f03b 6ac3 dc3d
00000130: 48ac 1340 4155 b93f 742d cf3b 7895 3c3e
00000140: 5a54 d33e 327c e33e 429f 9a3b 492b b63c
00000150: db40 2a3f 6d24 093f a3f2 8f3b 90cc 0a3d
00000160: 6745 083f 653f 0b3f dd6a a63b 4f29 dd3c
00000170: 7cf9 a43e 8115 453e 061b 433a 132a 943c
00000180: 01ad 6d40 a9ab 0740 112f 0a3c 45cc 823e
00000190: 0868 813f f10b 893f ac9a 303c 2402 303d
000001a0: 26cd 4640 baab 4d40 2752 fe3c 09cb 8c3e
000001b0: 8d22 833e 4fa7 823e 0abb 383b 53d5 c93b
000001c0: 292b 953f 749e 983f 97be 563c 8c4a 2e3d
000001d0: d671 0f40 1d8f 1340 ce76 ce3c 67b9 8f3d
000001e0: 2179 3640 8706 c83f 1b2a b13b f376 333e
000001f0: 2f16 cd3f 94c2 a33f 2b05 073c 23d1 ae3d
00000200: 06d6 633f 6874 423f e78f d13b 54d2 4a3d
00000210: 77b6 6c3f b77b 783f a30c 2c3c ec22 223d
00000220: 0c5d 1b3f 67d9 1f3f c067 df3b e099 ba3c
00000230: fa16 553f 51a2 5c3f aab7 193c 7ae5 e93c
00000240: 60b2 fe3f 0f59 593f 1c9d aa3b 6dc0 f13d
00000250: 314d 9c28 13d6 d927 ccee f723 7853 b624
00000260: 6080 d83e b71c e33e aa58 9d3b d1e1 8f3c
00000270: 663b 413e 9dfd e03d 597b eb39 c3a0 393c
00000280: b816 c83d c9aa 7f3d b265 8839 fd0a 263c
00000290: 8d41 bb3e 22f3 873e dafa d83a a85e eb3c
000002a0: ff40 463c a8a2 5c3c aee0 0f39 d8da e73b
000002b0: 479c 4f3e d533 1d3e 0fe9 f539 a878 073d
000002c0: 4337 423f 17ce 473f 9e83 0b3c 2142 d13c
000002d0: 627b 223d d8f7 c53c 5e39 ef38 b403 c33b
000002e0: c70e 8e3e eb7a 2c3e f5c1 543a e228 d63c
000002f0: ce30 ed3e 290b c03e 5797 d139 0a03 de3d
00000300: 3520 303e 6b01 d23d a1a2 e739 be1f 1f3c
00000310: fcb5 893f d118 553f a63e e53b fb96 3e3d
00000320: c858 503d c93a 423d 3e87 153a b9c0 073b
00000330: 1a11 453f d540 023f 8098 673b e322 603d
00000340: 144f 8640 bf94 0a40 0ced 2c3c d678 353e
00000350: 2254 f63d af69 033e d380 b33a d105 453b
00000360: 4e84 843f 0b85 513f 3dc8 d43b e92f 643d
00000370: c5c5 ad3f 5c43 913f 0ec7 0b3c c0ad 803d
00000380: 0000 0000 0000 0000 0000 0000 0000 0000
00000390: ae63 2e3e 5c53 313e 2079 fb3a 2f7e dc3b
000003a0: 421f 5e3e 451c 0f3e 1a60 253a 77f1 793c
000003b0: 8935 703f 61e4 1c3f 2b8f 823b 64ec a33d
000003c0: 1178 a73f f529 683f 3395 c83b 1eb2 c83d
000003d0: f683 673f 4f55 2f3f b96b bc3b bb15 203d
000003e0: 5066 4b3d 2046 623d 8099 ed39 f489 043c
000003f0: 9c69 063f ff28 c83e 3d54 1c3b 331a 103d
0.28098425 0.17316787 0.0007342714 0.022908868 1.6410757 1.671468 0.01787085 0.029075826
0.59992063 0.4744332 0.0038438558 0.034537707 0.22336924 0.14662282 0.00075617543 0.01301392
0.7360842 0.59896326 0.004807142 0.03993882 1.2583072 1.2950938 0.013892593 0.022615315
0.47525573 0.4972098 0.005413001 0.022243068 0.38177645 0.38628668 0.0042614606 0.020775113
0.64578027 0.53752 0.004421641 0.036939457 0.95576596 0.79464555 0.006477735 0.049975477
0.43452704 0.2503131 0.0011512873 0.017472608 0.3097732 0.26843116 0.0025893946 0.010519116
1.1808685 1.2328775 0.01332639 0.0396563 0.0 0.0 0.0 0.0
0.8871027 0.7219719 0.005837833 0.045139436 0.10330578 0.10164147 0.0011292959 0.0070531038
0.9099639 0.73019445 0.005749236 0.05012886 0.44485167 0.45124152 0.004683674 0.019412234
1.5347525 1.0623891 0.0073332167 0.1077946 2.3073902 1.4479142 0.006322557 0.18416393
0.41275293 0.4443069 0.004718692 0.022237437 0.6650521 0.53571206 0.004392938 0.033886492
0.532309 0.5439361 0.005078657 0.026997237 0.3222159 0.19246484 0.00074426865 0.018086469
3.7136843 2.1198523 0.008434073 0.2554647 1.0109873 1.0706769 0.010779064 0.04297079
3.1062713 3.2136064 0.031045033 0.27498654 0.25612298 0.2551827 0.0028187656 0.0061594634
1.1653796 1.1923356 0.013106964 0.042551562 2.241323 2.30561 0.025203135 0.070177846
2.8511431 1.5626992 0.0054066307 0.17525844 1.6022395 1.2793756 0.008240978 0.085359834
0.8899845 0.7595887 0.0063953283 0.04951699 0.9246592 0.97063774 0.01050106 0.039584085
0.60688853 0.62441105 0.006817788 0.022778451 0.83238184 0.86185175 0.009382168 0.028551806
1.9898186 0.8490152 0.005206717 0.118042804 1.7352956e-14 6.04617e-15 2.6880928e-17 7.907132e-17
0.42285442 0.44357845 0.0048018293 0.017563732 0.18870315 0.10985873 0.00044914594 0.0113298325
0.09769958 0.062418733 0.0002601571 0.010134456 0.3657345 0.26552683 0.0016554252 0.028731659
0.012100457 0.013466515 0.00013721242 0.0070756488 0.20274459 0.15351804 0.00046903684 0.03307405
0.7586557 0.78048843 0.008515267 0.025544228 0.03966845 0.024166033 0.000114070936 0.005951369
0.2774565 0.16843764 0.000811606 0.026142541 0.46326298 0.37508515 0.00039976343 0.108404234
0.17199786 0.10254177 0.0004418092 0.009712158 1.0758662 0.8324099 0.0069959937 0.046530705
0.05086592 0.047419343 0.00057040516 0.0020714237 0.7697922 0.50880176 0.00353387 0.05472077
4.197153 2.1653287 0.010554563 0.17721877 0.12027766 0.12833284 0.0013695009 0.0030063281
1.0352876 0.8184363 0.006493597 0.055709753 1.357598 1.1348681 0.008531345 0.0628314
0.0 0.0 0.0 0.0 0.17030212 0.17316955 0.0019185878 0.0067289094
0.21691611 0.13975628 0.0006308571 0.015255324 0.9383169 0.6128598 0.003984352 0.08004072
1.3083516 0.9068902 0.0061213016 0.09799598 0.9043573 0.68489546 0.005750146 0.039083224
0.04965812 0.055242658 0.0004531853 0.008089531 0.525049 0.39093778 0.002385392 0.035181236
