PPO/ppo_cartpole_best.pth (torch, 21880 bytes, 7 tensors)

shared_layers.0.weight f4 [64, 4]
0	0x3da0b507	0.07847028
1	0x3eb8ddcd	0.3610672
2	0xbf957738	-1.1677008
3	0xbec7b0a1	-0.39001945
4	0xbddd573a	-0.10807653
5	0x3e138b0c	0.14408511
6	0x3f4e3e5c	0.805639
7	0x3ed5d13b	0.41761193
8	0xbe9d7a3d	-0.30757323
9	0x3dba9b3e	0.09111641
10	0xbf1b18c0	-0.6058464
11	0xbd111682	-0.035421856
12	0xbf01a60e	-0.50644004
13	0xbe914eae	-0.2838034
14	0xbe73e14e	-0.23816416
15	0x3db32295	0.087468304
16	0x3e9d8369	0.3076432
17	0x3e8e2208	0.2776034
18	0xbf9250d7	-1.143092
19	0xbe52c66d	-0.20583506
20	0x3ea3aa55	0.3196589
21	0x3eda7b33	0.4267212
22	0x3ecca56b	0.39969954
23	0x3eb13c5c	0.34616363
24	0x3cf341a9	0.029694395
25	0x3d38291f	0.04496109
26	0xbafae1a1	-0.0019140729
27	0xbf0025f1	-0.50057894
28	0xbee7506d	-0.45178548
29	0xbe41c87a	-0.18924132
30	0x3e8ff38d	0.28115502
31	0x3ef39f41	0.4758244
32	0xbea23d64	-0.31687462
33	0xbe95ff4d	-0.29296342
34	0xbfb5e595	-1.4210688
35	0xbefe79e2	-0.49702364
36	0xbedaf1c0	-0.42762566
37	0x3eedd694	0.46452773
38	0x3f7387bf	0.9512901
39	0x3e9350bb	0.2877253
40	0xbe1ac37b	-0.15113632
41	0xbea63d29	-0.32468536
42	0xbf612c60	-0.87958336
43	0xbf029d69	-0.5102144
44	0xbec019a5	-0.37519565
45	0xbe8542d6	-0.26027554
46	0x3f714030	0.9423857
47	0x3e9fef90	0.3123746
48	0xbeb6fe41	-0.35740855
49	0xbdd7313e	-0.10507439
50	0x3f8533c5	1.0406424
51	0x3f0d984b	0.55310506
52	0x3ea297c1	0.31756404
53	0x3d9c7bdd	0.076408125
54	0xbdd8288e	-0.1055461
55	0xbeefef8b	-0.46862444
56	0xbe28d5b3	-0.1648777
57	0xbed0b14c	-0.40760267
58	0xbf8c1e3c	-1.0946727
59	0xbe8942ed	-0.26808873
60	0x3e8dbac6	0.2768156
61	0x3e9d46d8	0.30718112
62	0x3ee3a64f	0.4446282
63	0x3e2120bd	0.15735145
64	0x3ebdc468	0.3706391
65	0x3d621044	0.055191293
66	0x3f66f04e	0.90210426
67	0x3e117522	0.14204839
68	0x3f2fa9b9	0.6861835
69	0x3eff2baa	0.49838
70	0xbfb20bba	-1.3909829
71	0xbdead24e	-0.11465894
72	0x3e84c9ef	0.25935313
73	0x3ef8b07a	0.4857214
74	0x3fa5b813	1.29468
75	0x3ef1a7f7	0.4719846
76	0xbe738c77	-0.23784052
77	0xbf00fb8c	-0.5038383
78	0xbee0b7e1	-0.43890288
79	0xbea36567	-0.319133
80	0xbf0799dc	-0.52969146
81	0x3e9b66df	0.30351922
82	0xbeaad219	-0.33363417
83	0xbed97553	-0.42472324
84	0xbe4e9621	-0.20174457
85	0xbe3f02da	-0.18653432
86	0xbf335ea8	-0.7006631
87	0xbe5f174e	-0.21786234
88	0x3e7b7319	0.24555625
89	0xbe4013f2	-0.18757609
90	0x3fc73fb4	1.5566316
91	0x3e3bc146	0.18335447
92	0x3f07b21d	0.53006154
93	0x3e70d46e	0.23518535
94	0xbf9e18e6	-1.2351348
95	0xbe964062	-0.29345995
96	0x3eb3ea33	0.35139617
97	0x3d80be6f	0.06286322
98	0xbfb28cd3	-1.3949226
99	0xbe44d16d	-0.19220515
100	0x3edacbca	0.42733604
101	0x3e87450c	0.26419866
102	0xbf1ca593	-0.61190146
103	0xbe269a21	-0.16269733
104	0xbef31890	-0.47479677
105	0x3cc71c89	0.024305599
106	0xbfaf7808	-1.3708506
107	0xbed88727	-0.42290613
108	0x3e714bf2	0.23564127
109	0x3e6c25d7	0.2306131
110	0x3f051b1f	0.5199451
111	0x3e8db439	0.2767656
112	0xbeda6ed2	-0.42662674
113	0x3eafdac6	0.34346598
114	0xbf95898f	-1.1682605
115	0xbe9b9685	-0.30388275
116	0xbdb49e78	-0.08819288
117	0xbd515a50	-0.05111152
118	0x3ed2c9ba	0.4116953
119	0x3de62f45	0.11239485
120	0x3e8d4560	0.2759199
121	0x3e174cb1	0.14775349
122	0x3f106eea	0.5641924
123	0x3e5c5517	0.21516834
124	0xbeb0d564	-0.34537804
125	0xbe88674d	-0.26641312
126	0xbf851d25	-1.0399519
127	0xbe8597d9	-0.26092413
128	0xbeacc74a	-0.33745795
129	0xbed79d08	-0.42111993
130	0x3eb37721	0.35051826
131	0x3e152012	0.14563015
132	0xbf004777	-0.50109047
133	0xbde8e6d7	-0.11372154
134	0x3f96bc22	1.1776164
135	0xbc7f44e2	-0.015580388
136	0xbe1d29b3	-0.15347938
137	0xbd9d31b5	-0.076754965
138	0x3f5efa78	0.87100935
139	0x3ea9f3ac	0.3319372
140	0x3edbea10	0.42952013
141	0x3e33dc9d	0.17564626
142	0x3f5b394e	0.85634315
143	0xbe25af8f	-0.16180252
144	0xbec1f3cd	-0.37881318
145	0xbe1b8b25	-0.15189798
146	0x3f556aca	0.8336607
147	0xbb4c6e4d	-0.0031193674
148	0xbe031ca9	-0.12803902
149	0xbed2d4cb	-0.41177973
150	0xbffb2060	-1.9619255
151	0xbed20d6c	-0.41025865
152	0xbe895c3a	-0.26828176
153	0x3ea3c6eb	0.319877
154	0xbf22712d	-0.6345394
155	0xbee7c7bc	-0.45269573
156	0xbcc933fb	-0.024560919
157	0xbef0530c	-0.4693836
158	0xbf23de57	-0.6401114
159	0xbe468900	-0.19388199
160	0xbe6c5c38	-0.23082054
161	0xbe789d78	-0.2427882
162	0xbfabf0f9	-1.3432914
163	0xbee00851	-0.43756345
164	0xbea81e12	-0.32835442
165	0xbd05f483	-0.032703888
166	0xbe0ffc10	-0.14060998
167	0x3e684be1	0.22685196
168	0xbed88bce	-0.42294163
169	0xbd957ecd	-0.07299576
170	0xbc9b8465	-0.01898403
171	0xbe4b739e	-0.19868323
172	0x3ec39745	0.38201347
173	0x3e628f46	0.22124967
174	0x3e8097b1	0.2511573
175	0x3ea9136d	0.33022633
176	0xbe953121	-0.29139045
177	0xbea10aa4	-0.3145343
178	0xbe8d5349	-0.27602604
179	0xbecf080a	-0.4043582
180	0x3e4e0a4b	0.20121114
181	0xbd70db15	-0.058802683
182	0x3fb02781	1.3762056
183	0x3dcf33a9	0.10117275
184	0x3eb26fdb	0.34850964
185	0x3e72ee9e	0.23723838
186	0xbf1aa067	-0.60401005
187	0xbe03fc4c	-0.12889212
188	0xbeeaa87c	-0.45831668
189	0x3e93b9a5	0.28852573
190	0x3fa9870f	1.3244342
191	0x3eb888b3	0.36041793
192	0xbea158d2	-0.31513077
193	0xbca09645	-0.019602904
194	0xbfc92295	-1.5713679
195	0xbe8dcb34	-0.27694094
196	0xbef02b9a	-0.46908265
197	0x3e37ebff	0.17961119
198	0xbf4b4757	-0.7940573
199	0x3ca48348	0.020082131
200	0x3d0ee9a8	0.0348908
201	0x3e852870	0.26007414
202	0xbfba2b3a	-1.4544442
203	0xbe3c1e3f	-0.18370913
204	0xbe73cd40	-0.23808765
205	0x3ec4720f	0.3836827
206	0x3f017b56	0.5057882
207	0x3eed3d0e	0.46335644
208	0x3ebc4a25	0.36775318
209	0x3dc85ede	0.097837195
210	0xbedb3898	-0.42816615
211	0xbdff2eef	-0.12460124
212	0xbdcc38bf	-0.09971761
213	0xbe08ca62	-0.13358453
214	0x3f140860	0.5782528
215	0x3d1598ce	0.03652268
216	0xbef7c9ed	-0.48396245
217	0xbe93aa26	-0.2884075
218	0x3ec49270	0.38392973
219	0xbea141d2	-0.3149553
220	0x3cb23f5d	0.02175873
221	0x3ef2910c	0.47376287
222	0x3fa7a744	1.309792
223	0x3bf54868	0.007485438
224	0xbed0879a	-0.40728456
225	0x3e58c2a5	0.21168001
226	0xbfb8b646	-1.4430625
227	0xbe1c81e1	-0.1528392
228	0xbebc58db	-0.3678654
229	0xbde0b664	-0.10972288
230	0x3f1dd63b	0.61655015
231	0x3ed440b2	0.4145561
232	0x3e9a6c5f	0.30160806
233	0x3ee02bfe	0.43783563
234	0xbda98653	-0.082775734
235	0xbeaa7920	-0.33295536
236	0x3ed0c33b	0.4077395
237	0xbec14bce	-0.37753147
238	0xbe380771	-0.17971589
239	0x3da7440e	0.08167277
240	0x3e9041fd	0.28175345
241	0x3ededf3a	0.43529683
242	0xbd467d75	-0.04845949
243	0xbcda3990	-0.026638776
244	0x3eb4d333	0.35317382
245	0xbf117e09	-0.5683294
246	0xbe7e3775	-0.24825843
247	0xbef8fbbb	-0.48629555
248	0x3dc60759	0.0966937
249	0xbdc6db1e	-0.09709762
250	0xbf87ff6c	-1.0624824
251	0x3d9d42a3	0.076787256
252	0x3ee64c52	0.44980103
253	0xbe47eff3	-0.19525127
254	0xbfb72a97	-1.4309872
255	0xbe151e62	-0.14562371

shared_layers.0.bias f4 [64]
0	0xbf334bc9	-0.70037514
1	0x3ed62f23	0.41832837
2	0xbef65bae	-0.4811682
3	0xbf3307b5	-0.69933635
4	0xbee026c2	-0.4377957
5	0x3f17fcac	0.5936992
6	0x3ee06822	0.43829447
7	0x3f2b399e	0.6688479
8	0x3ebcd0a9	0.36877945
9	0xbeb372af	-0.35048434
10	0xbebc375e	-0.36760992
11	0x3ee2d736	0.44304818
12	0x3f225341	0.63408285
13	0x3e8ad953	0.2711893
14	0xbeecf0a2	-0.46277338
15	0xbef80d46	-0.48447627
16	0xbf1790c0	-0.59205246
17	0x3d492942	0.049111612
18	0xbf00d426	-0.5032371
19	0xbf37fcd1	-0.7187014
20	0x3f30c4e5	0.6905044
21	0xbf05f4ed	-0.5232685
22	0x3dce4edf	0.10073637
23	0x3eb5fbd6	0.35543698
24	0x3e0e7491	0.13911654
25	0xbf34df4f	-0.7065324
26	0xbf31b888	-0.694222
27	0x3f06dba2	0.52678883
28	0xbddf78d7	-0.1091172
29	0x3f1eafe3	0.6198713
30	0xbeb9199f	-0.3615236
31	0x3ecee6e8	0.40410542
32	0xbeceddb4	-0.4040352
33	0xbe5b5830	-0.2142036
34	0xbeff125a	-0.4981869
35	0x3f072d22	0.5280324
36	0x3ee232f2	0.44179493
37	0xbe0b1d2f	-0.13585351
38	0xbeaf885f	-0.3428373
39	0xbf06849c	-0.52546096
40	0x3f039996	0.5140623
41	0xbf172460	-0.5903988
42	0x3f0942e7	0.5361771
43	0xbeee2a34	-0.46516573
44	0xbf081450	-0.53155994
45	0x3e869885	0.26288238
46	0xbf095b05	-0.5365451
47	0x3e9bd949	0.30439213
48	0x3e56a80b	0.20962541
49	0xbf2e0920	-0.67982674
50	0x3e308810	0.17239404
51	0x3ed4ba87	0.4154856
52	0x3ee79ce7	0.45236894
53	0xbe8fab12	-0.28060204
54	0xbf38f3f0	-0.7224722
55	0xbe197f5b	-0.14989989
56	0x3ea19632	0.31559902
57	0xbedd028e	-0.43166012
58	0x3ef3633c	0.47536647
59	0x3f068931	0.5255309
60	0xbf127789	-0.57213646
61	0x3e7df620	0.2480092
62	0x3ea50018	0.32226634
63	0x3caae39e	0.02086049

shared_layers.2.weight f4 [64, 64]
0	0x3c69a88a	0.014261374
1	0x3c9905b8	0.018679485
2	0xbd5f1621	-0.054464463
3	0xbd2ba959	-0.04190955
4	0x3e09c492	0.13453892
5	0x3e2c68c1	0.16836835
6	0x3e4b17af	0.19833253
7	0x3d2ebe2a	0.042661823
8	0x3f1fb86c	0.6239078
9	0xbeab524c	-0.33461225
10	0xbda39934	-0.079882056
11	0xbe284c3c	-0.16435331
12	0x3dfd7b0b	0.12376984
13	0x3e64367f	0.22286414
14	0xbd9a9507	-0.07547956
15	0xbdafba3c	-0.08580443
16	0xbde320c1	-0.11090232
17	0x3eab51aa	0.33460742
18	0xbecabf92	-0.39599282
19	0x3bb3c423	0.005486028
20	0x3df0fbae	0.11766754
21	0xbd3fee17	-0.04685792
22	0xbe66c4be	-0.22535989
23	0x3ef22e75	0.4730107
24	0x3e7d2782	0.24722102
25	0x3dbddb9e	0.09270404
26	0x3dc58e65	0.096463
27	0x3dd25f14	0.10272041
28	0x3e3f9004	0.18707281
29	0x3dbb13e6	0.09134655
30	0xbe8a48cc	-0.27008665
31	0x3f011492	0.5042201
32	0xbe4579a2	-0.1928468
33	0xbf077812	-0.5291759
34	0xbeac88fa	-0.33698255
35	0xbbcb720f	-0.006208665
36	0xbd831c8a	-0.06401928
37	0x3eabe2a1	0.33571342
38	0x3c596718	0.013269208
39	0xbd610c9b	-0.054943662
40	0x3edfa4db	0.43680462
41	0xbe233d58	-0.1594137
42	0xbc39710b	-0.011318455
43	0xbd7ab124	-0.06120409
44	0xba2dd16e	-0.0006630634
45	0xbd7e79bf	-0.062127825
46	0x3da211e9	0.07913572
47	0xbe5262e2	-0.20545533
48	0x3effd689	0.49968365
49	0xbb87cb68	-0.004144121
50	0x3e8d6bad	0.27621213
51	0x3e143e02	0.14476779
52	0x3df77b9e	0.12084125
53	0xbf01fcbe	-0.5077628
54	0xbe45b67c	-0.19307894
55	0xbe8046b9	-0.25053957
56	0x3f321648	0.6956525
57	0xbe54cec1	-0.20781995
58	0x3e81d34b	0.25356516
59	0x3da91304	0.0825558
60	0x3d72f450	0.059315026
61	0x3df9bec9	0.121945925
62	0x3e820b56	0.25399274
63	0x3ee16e48	0.4402945
64	0xbe782a24	-0.24234825
65	0x3ebc6681	0.36796954
66	0xbd6eee51	-0.058332745
67	0xbddd1e0c	-0.107967466
68	0xbec66146	-0.3874609
69	0x3e87738f	0.26455352
70	0x3daff37c	0.08591363
71	0x3e01e320	0.12684298
72	0xbe33cad3	-0.1755784
73	0x3d3b0ac0	0.04566455
74	0xbebfc476	-0.37454575
75	0x3eba6f84	0.36413205
76	0x3eecbf02	0.46239477
77	0x3d93909c	0.072053164
78	0xbeeb6ca9	-0.4598134
79	0x3dd9d295	0.106358685
80	0x3daaad54	0.08333841
81	0xbe57fc2a	-0.21092287
82	0x3c60370e	0.013685001
83	0xbd676f2e	-0.056502514
84	0x3da34d43	0.07973721
85	0xbe884a8a	-0.2661937
86	0x3ecd9d9b	0.40159306
87	0x3d821fdd	0.06353734
88	0xbe7a5e3c	-0.2445001
89	0xbde3a218	-0.11114901
90	0xbef29fe7	-0.4738762
91	0x3dcedbab	0.10100492
92	0xbd0f409e	-0.034973733
93	0x3dacf824	0.084457666
94	0xbd7c554f	-0.061604794
95	0xbe1c1983	-0.15244107
96	0xbdf7a034	-0.12091103
97	0x3dae46f5	0.08509628
98	0xbc57201b	-0.013130213
99	0x3eb38ae9	0.35066918
100	0x3e5676db	0.20943777
101	0xbf1a28ef	-0.6021871
102	0xbcaa91c7	-0.020821465
103	0xbdaa5635	-0.08317224
104	0x3cdded80	0.027090788
105	0xbe6c91e3	-0.23102526
106	0x3bb3bd57	0.0054852176
107	0xbdb8f3ec	-0.090308994
108	0xbe1fc0b6	-0.15600857
109	0x3f8a3f4e	1.0800569
110	0xbe81819a	-0.2529419
111	0x3f036a96	0.5133451
112	0xbddfcd39	-0.10927815
113	0xbe2ff9b8	-0.17185104
114	0xbe68eefc	-0.22747415
115	0x3db4cac9	0.08827741
116	0x3db67bb9	0.08910317
117	0xbd5ff468	-0.054676443
118	0xbcc3d61d	-0.023905808
119	0x3e37abae	0.17936584
120	0xbe845ab6	-0.25850457
121	0xbe39f130	-0.18158412
122	0x3dcca977	0.0999326
123	0x3cf9ab06	0.030477058
124	0xbe2cdf95	-0.16882165
125	0x3cfb59d8	0.03068249
126	0xbe5c9eaa	-0.215449
127	0xbe8c2449	-0.27371433
128	0xbcab0dd5	-0.020880619
129	0xbdd42c7a	-0.10360046
130	0x3df3a51d	0.11896727
131	0x3d0cd121	0.03437913
132	0x3e12ff45	0.1435519
133	0x3dce2692	0.100659505
134	0x3c7ff553	0.015622455
135	0x3e3011f6	0.17194352
136	0x3f14508c	0.57935405
137	0xbe7a925f	-0.24469899
138	0xbd977bc9	-0.07396657
139	0xbd61cd68	-0.05512753
140	0xbdc140c4	-0.09436181
141	0x3d46f264	0.048571005
142	0x3d9cdb20	0.07658982
143	0xbe8c3749	-0.2738593
144	0xbe668050	-0.22509885
145	0x3e843f5c	0.2582959
146	0xbefaed6c	-0.49009264
147	0xbe2f28f1	-0.17105462
148	0x3dd630d4	0.10458532
149	0xbd76626a	-0.06015245
150	0xbe644d14	-0.22295028
151	0x3ef93b72	0.48678166
152	0x3ec03414	0.37539732
153	0xbd90016b	-0.070315205
154	0x3d95dcff	0.07317542
155	0xbd8cb6ed	-0.06870828
156	0x3dc479a7	0.09593516
157	0x3e09df46	0.13464078
158	0xbeb480f2	-0.35254627
159	0x3efff0a4	0.49988282
160	0xbe661173	-0.22467594
161	0xbf162eba	-0.5866505
162	0xbf0eb5c9	-0.5574613
163	0xbcf8409f	-0.030304251
164	0x3857e791	5.1475658e-05
165	0x3ed66115	0.41870943
166	0x3df52b9d	0.11971209
167	0xbc26ffb1	-0.0101927975
168	0x3f1287c8	0.57238436
169	0xbdf97ca1	-0.12181974
170	0x3e04fab5	0.12986262
171	0xbe48cf2c	-0.1961028
172	0xbc58f947	-0.013243026
173	0xbe84944a	-0.25894386
174	0x3d4f7126	0.050645016
175	0xbdce022c	-0.10059008
176	0x3f01c99f	0.50698274
177	0xbd583ee6	-0.05279436
178	0x3edc6444	0.43045247
179	0x3e2989aa	0.16556421
180	0x3dfa3c61	0.122185476
181	0xbebfee46	-0.37486476
182	0xbcb9ce0a	-0.022681255
183	0xbe02ecdd	-0.12785669
184	0x3f4a5ac8	0.7904477
185	0xbeba9d18	-0.36447978
186	0x3e2195e1	0.1577983
187	0x3dc151b3	0.09439411
188	0xbdef0bd2	-0.116721764
189	0x3e310db8	0.1729039
190	0x3e7ab389	0.2448255
191	0x3ebcde44	0.36888325
192	0x3e104c01	0.14091493
193	0xbe50cb33	-0.20390014
194	0x3f0a1183	0.5393297
195	0x3e9ec990	0.31013155
196	0x3d27b004	0.040939346
197	0xbe9ece13	-0.31016597
198	0xbdd3bb86	-0.10338502
199	0xbe1679a9	-0.14694847
200	0xbe4a5855	-0.19760258
201	0x3eb082dc	0.34474838
202	0x3ee6c9f8	0.45075965
203	0xbe31724f	-0.17328762
204	0xbe5da0cf	-0.21643375
205	0xbe845284	-0.25844204
206	0x3f10fc2d	0.5663479
207	0x3e0c4ff8	0.1370238
208	0x3e3390b5	0.1753567
209	0xbde002eb	-0.109380566
210	0x3ed96ebb	0.42467293
211	0x3f1914b9	0.59797245
212	0xbe6a3300	-0.22871017
213	0x3f01bfc8	0.5068326
214	0xbeaa4429	-0.33255127
215	0xbe5b41f9	-0.21411885
216	0xbe10db36	-0.14146122
217	0x3d7d1c8a	0.061794795
218	0x3ee6bb2d	0.4506468
219	0xbf131a20	-0.5746174
220	0x3ddc2ea8	0.107510865
221	0xbe1a8d84	-0.15093046
222	0x3e089a2a	0.13340059
223	0xbeaed1ee	-0.3414454
224	0x3e4b0553	0.1982625
225	0x3ef7fce1	0.4843512
226	0x3e0bf0a0	0.1366601
227	0xbe62e184	-0.2215634
228	0xbe1d35d8	-0.15352571
229	0x3e9b1054	0.30285895
230	0x3dc99988	0.09843737
231	0x3e2f361d	0.17110486
232	0xbdc92c82	-0.09822942
233	0x3ee149d4	0.4400164
234	0xbe1dd76c	-0.15414208
235	0x3e47abf7	0.19499193
236	0x3eafb68a	0.34318954
237	0xbf04a0e2	-0.5180799
238	0x3e59b18a	0.21259132
239	0xbd060402	-0.032718666
240	0xbe2a9f4c	-0.1666233
241	0x3edc6d40	0.430521
242	0xbc303f27	-0.010757244
243	0xbd484234	-0.04889126
244	0xbee284aa	-0.4424184
245	0x3ec58e32	0.3858505
246	0x3e7337be	0.23751733
247	0x3c5dcca2	0.013537558
248	0xbc517c8f	-0.012786045
249	0x3eaa1bce	0.33224338
250	0xbdb3b61a	-0.087749675
251	0xbe88159b	-0.26578984
252	0x3dcebafa	0.10094257
253	0xbefedcc1	-0.49777797
254	0xbdfa542b	-0.12223085
255	0xbd978657	-0.0739867

shared_layers.2.bias f4 [64]
0	0x3e25c8ae	0.16189834
1	0x3e256761	0.16152717
2	0x3d859d54	0.065241486
3	0xbe885c7f	-0.2663307
4	0xbe5f4ae8	-0.21805918
5	0xbd8e4ce3	-0.06948259
6	0xbe6a3374	-0.2287119
7	0xbe74bc79	-0.23900022
8	0x3e57e4be	0.21083352
9	0x3dcc3aba	0.09972139
10	0x3da5226f	0.08063208
11	0x3e4f073d	0.20217605
12	0xbe7003bf	-0.23438929
13	0x3e3feff3	0.18743877
14	0x3e8f00ed	0.27930394
15	0x3e4f6e77	0.20256983
16	0xbd541d74	-0.0517859
17	0x3c10f22a	0.008846799
18	0xbc2d4e3d	-0.0105777355
19	0x3e20a1b2	0.15686682
20	0x3de3e532	0.111277
21	0x3e0bf95e	0.13669345
22	0x3d5a2abc	0.05326341
23	0x3e8446ec	0.2583536
24	0xbe1a9538	-0.15095985
25	0xbe10b868	-0.14132845
26	0x3e4f72a8	0.20258582
27	0x3e0c460d	0.13698597
28	0xbe15e35b	-0.1463751
29	0x3d7415f0	0.059591234
30	0x3d03d2f9	0.03218362
31	0x3e3c87d2	0.18411186
32	0x3e0d60b7	0.13806425
33	0xbde55fe0	-0.11199927
34	0x3dd060a1	0.101746805
35	0xbe05cd5c	-0.1306662
36	0xbddc1c29	-0.107475586
37	0xbe6816a7	-0.22664891
38	0x3e2d3cca	0.1691772
39	0x3e98a768	0.2981522
40	0x3df87206	0.12131123
41	0x3e38395e	0.17990634
42	0xbe8e9ab0	-0.27852392
43	0x3ba38c26	0.004991072
44	0x3e2ef13f	0.17084216
45	0xbe103df0	-0.14086127
46	0xbdd68cbf	-0.10476064
47	0xbe1cfdf1	-0.15331246
48	0xbe1d34e4	-0.15352207
49	0x3e5b7a0a	0.21433273
50	0xbe06d3f8	-0.13166797
51	0x3da5796a	0.080797985
52	0xbd6570dc	-0.056015834
53	0xbd829977	-0.06376927
54	0xbd018f4f	-0.03163081
55	0xbe8aedc5	-0.2713453
56	0x3e37c22f	0.17945169
57	0xbe80a3b5	-0.251249
58	0x3e4f3180	0.20233727
59	0xbe7560c4	-0.23962694
60	0xbdea34a1	-0.114358194
61	0xbccd37dd	-0.025051052
62	0x3e45b3af	0.19306825
63	0xbdfd216a	-0.12359889

actor.weight f4 [2, 64]
0	0x3e20b856	0.15695319
1	0xbe974dee	-0.29551643
2	0x3dc027e8	0.093826115
3	0xbd3853a1	-0.04500163
4	0x3b008944	0.0019613067
5	0x3e3deaf7	0.18546663
6	0xbd8747e7	-0.06605511
7	0x3e5e6e4f	0.21721767
8	0xbe46da78	-0.19419277
9	0xbe0d0965	-0.13773115
10	0x3d849810	0.06474316
11	0x3e048de8	0.12944758
12	0x3eac2d6d	0.33628407
13	0x3d0712ba	0.032976843
14	0xbd527ee1	-0.051390532
15	0x3deb8387	0.11499696
16	0xbe19c752	-0.15017441
17	0x3e99a9f6	0.30012482
18	0x3ebacdca	0.3648513
19	0xbd3665e9	-0.044530783
20	0x3dfddf77	0.12396138
21	0x3cae9825	0.021312783
22	0x3e677e23	0.22606711
23	0x3e028dda	0.12749425
24	0x3dd79285	0.10525993
25	0xbde9235e	-0.11383699
26	0x3e082732	0.13296202
27	0x3db0094b	0.085955225
28	0x3da08685	0.078381576
29	0x3e5e52d1	0.2171128
30	0x3cf33da8	0.029692486
31	0x3e2ddcf2	0.16978815
32	0xbd4e0e7a	-0.050306775
33	0xbeacb401	-0.33731082
34	0xbe38f351	-0.18061568
35	0x3e82b2a6	0.25526923
36	0x3c291072	0.010318862
37	0x3e1cd115	0.15314133
38	0x3e3359ce	0.17514727
39	0x3c2cd580	0.010548949
40	0x3db37569	0.087626286
41	0xbc485b6f	-0.012228831
42	0x3dbd1abe	0.09233616
43	0x3ed35c95	0.41281572
44	0x3e2946c5	0.16530903
45	0x3d97a888	0.07405192
46	0xbc27f50f	-0.010251298
47	0x3e250139	0.16113748
48	0xbe07c6fe	-0.13259503
49	0x3e279318	0.16364706
50	0xbdc0f06f	-0.09420859
51	0xbd9ef8c9	-0.07762296
52	0xbd5ffdc8	-0.054685384
53	0x3ddf46ce	0.10902177
54	0xbe2261c4	-0.15857607
55	0x3c729090	0.014804974
56	0x3d4ca51c	0.049962148
57	0xbc00ee5e	-0.007869331
58	0xbeabedd4	-0.33579886
59	0x3dfbf4d9	0.1230256
60	0x3ceebe42	0.029143456
61	0xbe4ae6c0	-0.19814587
62	0x3b2432c4	0.0025054673
63	0x3dfbefaa	0.12301572
64	0xbe841cc0	-0.25803185
65	0x3e8340b1	0.25635293
66	0xbe84f9bb	-0.2597178
67	0xbd68d086	-0.05683949
68	0x3d12b0d4	0.035813168
69	0xbdecfed7	-0.11572044
70	0x3e14b808	0.14523327
71	0xbe887fae	-0.26659912
72	0x3e4e44fc	0.20143503
73	0xbd116bd0	-0.03550321
74	0x3cd7331a	0.026269484
75	0xbe736997	-0.23770748
76	0xbeb1d2fe	-0.34731287
77	0x3c02efb3	0.007991719
78	0x3d8b2bc9	0.06795461
79	0xbe23b617	-0.1598743
80	0x3c050904	0.008119825
81	0xbdf873c2	-0.12131454
82	0xbe3466ef	-0.17617391
83	0xbc69911a	-0.014255786
84	0xbe3adc2b	-0.1824805
85	0xbd9bff89	-0.07617099
86	0xbd9fa6f1	-0.077955134
87	0xbd114a4a	-0.03547124
88	0xbd58985d	-0.05287968
89	0xbde1065b	-0.1098754
90	0xbd47b608	-0.048757583
91	0xbd89e553	-0.06733193
92	0x3d5eb784	0.054374233
93	0xbe80a2de	-0.25124258
94	0x3e027bf2	0.12742594
95	0xbd0e6b6f	-0.034770425
96	0x3c9941b4	0.018708088
97	0x3dfc9e57	0.123348884
98	0x3ed66dc1	0.4188061
99	0xbe9b9b52	-0.30391937
100	0x3c03d5f8	0.00804662
101	0xbe103b6e	-0.1408517
102	0xbe689130	-0.22711635
103	0xbdbf6362	-0.09345128
104	0xbe235c76	-0.1595324
105	0xbd52e9f0	-0.05149263
106	0x3b979224	0.0046255756
107	0xbe6dfb20	-0.23240328
108	0xbe5318eb	-0.20614974
109	0x3d8b5c77	0.06804746
110	0x3d4cd776	0.050010167
111	0xbe097477	-0.13423334
112	0xbd5b1f9f	-0.053496953
113	0xbdb23ae1	-0.087026365
114	0xb820d3df	-3.8344293e-05
115	0x3c03240b	0.008004199
116	0xbddadf1e	-0.106870875
117	0xbd99430e	-0.07483493
118	0x3de6a208	0.11261374
119	0xbe0aac33	-0.13542251
120	0x3c62700b	0.013820658
121	0xbe092784	-0.1339398
122	0x3e737fa8	0.23779166
123	0xbe5583af	-0.20851015
124	0x3d164acc	0.036692426
125	0x3e6df29b	0.23237078
126	0xbdb8998f	-0.09013664
127	0x3dab3ae2	0.083608404

actor.bias f4 [2]
0	0x3d902c41	0.07039691
1	0x3e11f9e7	0.14255486

critic.weight f4 [1, 64]
0	0x3f816ce9	1.0111362
1	0x3f96b9d5	1.1775461
2	0x3f944469	1.1583377
3	0xbf9252bb	-1.1431497
4	0xbf8fb9a1	-1.1228524
5	0x3f8d3453	1.1031593
6	0xbf90d952	-1.1316321
7	0xbfa3c22d	-1.2793633
8	0x3faac40f	1.3341082
9	0x3f8d4755	1.1037394
10	0x3f8e8d5b	1.1136888
11	0x3f8d159d	1.1022221
12	0xbfa89951	-1.3171788
13	0x3f91379f	1.1345099
14	0x3f86f6f0	1.0544109
15	0x3f860cbd	1.0472637
16	0xbf90fb29	-1.1326648
17	0x3f97035e	1.1797903
18	0xbfa525e1	-1.2902185
19	0x3f930170	1.1484814
20	0x3f990e15	1.1957422
21	0x3f8d1274	1.1021256
22	0x3f9909ac	1.1956077
23	0x3f8e8e53	1.1137184
24	0xbf89d853	-1.0769142
25	0xbf935453	-1.1510109
26	0x3f8410b0	1.0317593
27	0x3f961313	1.1724571
28	0xbf850acf	-1.0393924
29	0x3f91a723	1.1379131
30	0x3f91ddf5	1.1395861
31	0x3f9070c7	1.1284417
32	0x3f9197e2	1.1374476
33	0xbf90c3af	-1.1309718
34	0x3f9b665a	1.214061
35	0xbf9cd5d7	-1.2252759
36	0xbf852f6b	-1.0405096
37	0xbf8fca47	-1.1233605
38	0x3f9514e9	1.1647006
39	0x3f8e7366	1.1128967
40	0x3f9239ec	1.1423926
41	0x3f87d09f	1.0610541
42	0xbf8ee742	-1.1164324
43	0xbfaf2951	-1.3684484
44	0x3f8b49e8	1.0881929
45	0xbf8f11b8	-1.1177282
46	0xbf913e37	-1.1347111
47	0xbf8bc41f	-1.0919226
48	0xbf8c6bee	-1.0970438
49	0x3f885692	1.0651419
50	0xbf8b0a43	-1.0862507
51	0x3f966da6	1.1752212
52	0xbf9305a5	-1.1486098
53	0xbf89c8ad	-1.0764366
54	0xbf9737c3	-1.1813892
55	0xbf8934c3	-1.0719227
56	0x3f8ea9b8	1.1145544
57	0xbf8aa4ce	-1.0831544
58	0x3fa2c339	1.2715827
59	0xbf99a671	-1.2003919
60	0xbf8b86a3	-1.0900463
61	0xbf896e5d	-1.0736805
62	0x3f8afc31	1.0858213
63	0xbf94c39f	-1.1622199
