DQN/dqn_cartpole.pth (torch, 82982 bytes, 24 tensors)

fc1.weight f4 [64, 4]
0.14575814 0.37474287 -0.33369353 0.4442736 -0.084779814 0.12580839 -0.26821053 0.26874
0.3589134 -0.27450687 0.21439052 0.04424325 0.14424077 0.030844713 -0.026073407 -0.10441578
0.1997794 0.08547454 -0.48070607 0.08786132 -0.5550477 0.29085106 1.065238 0.5999391
-0.5584611 -0.04802649 -0.07602117 -0.124833904 -0.9247064 -1.275162 -0.7920761 -0.8843525
0.22757219 0.123193294 -0.4359715 0.22604142 -0.1565104 0.39496312 0.014562471 -0.11676059
0.56504524 0.09779179 0.95843077 0.60133535 0.17857057 -0.59639645 -0.70733577 -0.025419105
0.34148344 -0.34678817 -1.7275348 -0.51308566 -0.39608806 0.39973664 0.12894613 0.16041562
-0.05610409 0.109549925 0.44072416 -0.5055935 0.031481862 -0.3412701 0.154176 -0.17219114
-0.02022944 -0.107533835 0.23460755 -0.28797808 -0.2694807 -0.087216035 0.24812642 0.06939528
0.2949056 -0.46985126 -0.8441521 -0.4055122 0.004847885 0.57965744 1.3033943 0.61710966
-1.4497405 -1.1149482 -1.6164414 -0.7648383 0.06537232 -0.076609515 0.33735934 -0.47888947
-0.38446757 0.20233406 0.05902919 -0.05798073 0.5006486 0.18957359 -1.3104286 -0.38330558
0.63125145 -0.03218048 0.17648071 -0.3668058 -0.18190964 0.10476825 -0.9354576 -0.73086905
0.07057849 -0.4796814 -1.5394645 -0.47167894 -1.482906 -0.389011 0.74605185 -0.20221807
-0.7461172 -0.9830392 -1.6448491 -0.6809632 0.33409718 -0.38330808 -1.2691413 -0.57896805
0.2353523 -0.26526466 -1.50763 -0.60620934 -0.4952725 -0.060192775 -0.17036897 -0.40029737
0.20858592 -0.073107764 0.34858435 0.16254792 -1.3330835 -0.33605924 -1.4485656 -0.25619254
-1.4333339 -0.76866937 -0.397181 -0.49065447 0.26703888 -0.36977798 0.45235485 -0.31167024
-0.20248443 0.35329932 1.5999626 0.7813815 0.62214524 -0.33837903 -1.0761492 -0.44550955
-0.91931945 -0.3896224 0.55437887 -0.2972454 0.5007035 0.09649805 -0.5685388 -0.39950842
0.75424373 0.07118601 -0.37084314 -0.13777986 0.29283533 -0.27521306 -1.4406569 0.29142
-0.92175835 -0.8945215 -1.2462838 -0.6080265 0.20003034 -0.19133441 -0.2690412 -0.12425755
-0.7668817 0.30918705 1.4225538 -0.22726545 0.21803115 0.12335974 0.13584812 -0.18120554
0.45556158 0.341327 0.64361703 -0.26959595 0.044330034 -0.091333985 -1.4779599 -0.38563868
0.57645977 0.336595 -0.72719944 -0.14747307 -0.20727442 -0.027673073 0.048909426 0.19118722
-1.1474596 0.16918252 1.4371454 0.23747055 0.52457833 -0.27979782 -1.0445958 -0.4164611
-0.017854545 0.38094163 1.4722499 0.5006711 0.021949798 -0.7748487 -0.8352481 0.21784523
-0.115545526 -0.12988275 0.00928213 -0.1899288 -0.47701284 0.38784227 -0.21381506 -0.00087884144
-0.49740213 0.33463532 0.37881732 0.1822241 -0.15953168 -0.72937673 -1.4412352 -0.092817135
-0.037708044 0.40339765 0.08425122 0.09867312 0.31265137 -0.2818364 -1.0364599 -0.32817397
0.027024334 -0.28113186 -0.518624 -0.34142476 -0.14323021 -0.273121 -0.60809624 0.16010424
-0.81152636 0.32101285 0.09526365 -0.2694493 -0.81338596 -0.3309293 -0.005004329 -0.3690932
00000000: 9f41 153e 4cde bf3e e1d9 aabe d477 e33e
00000010: 0aa1 adbd ead3 003e e452 89be 4a98 893e
00000020: 7fc3 b73e 2a8c 8cbe 3089 5b3e 6938 353d
00000030: dab3 133e 0dae fc3c e697 d5bc f1d7 d5bd
00000040: f992 4c3e 470d af3d 1b1f f6be a3f0 b33d
00000050: 9b17 0ebf 6eea 943e b859 883f 9c95 193f
00000060: 4ff7 0ebf 6db7 44bd fdb0 9bbd eba8 ffbd
00000070: 8fb9 6cbf 8238 a3bf 80c5 4abf ed64 62bf
00000080: af08 693e c44c fc3d a837 dfbe 6777 673e
00000090: 4344 20be 9b38 ca3e 6e97 6e3c 2d20 efbd
000000a0: cea6 103f 1047 c83d b85b 753f 1df1 193f
000000b0: 34db 363e 70ad 18bf f513 35bf ba3b d0bc
000000c0: ebd6 ae3e 388e b1be dc1f ddbf 9559 03bf
000000d0: 0ecc cabe 48aa cc3e 740a 043e fe43 243e
000000e0: 67cd 65bd b65b e03d 99a6 e13e 936e 01bf
000000f0: 20f3 003d f4ba aebe 50e0 1d3e e052 30be
00000100: 36b8 a5bc b33a dcbd f63c 703e dd71 93be
00000110: 60f9 89be 529e b2bd da14 7e3e 1d1f 8e3d
00000120: defd 963e 5890 f0be 5a1a 58bf 4c9f cfbe
00000130: 02db 9e3b 6e64 143f a0d5 a63f e6fa 1d3f
00000140: 1991 b9bf 9fb6 8ebf 8de7 cebf 71cc 43bf
00000150: ece1 853d 73e5 9cbd 5dba ac3e 0031 f5be
00000160: efd8 c4be a930 4f3e 98c8 713d 347d 6dbd
00000170: 822a 003f 941f 423e 20bc a7bf a140 c4be
00000180: b299 213f aecf 03bd 5cb7 343e f8cd bbbe
00000190: 8546 3abe bc90 d63d 267a 6fbf 3c1a 3bbf
000001a0: 758b 903d cd98 f5be 2c0d c5bf e77f f1be
000001b0: ddcf bdbf 732c c7be 41fd 3e3f 4112 4fbe
000001c0: 8901 3fbf 75a8 7bbf 6a8a d2bf 9b53 2ebf
000001d0: c90e ab3e f540 c4be 3973 a2bf 4037 14bf
000001e0: 3100 713e c5d0 87be 05fa c0bf 8930 1bbf
000001f0: 5b94 fdbe b38c 76bd 3475 2ebe c7f3 ccbe
00000200: 8c97 553e 86b9 95bd a679 b23e f672 263e
00000210: 7ba2 aabf f50f acbe 996a b9bf ab2b 83be
00000220: 7c77 b7bf 84c7 44bf 4f5b cbbe 1037 fbbe
00000230: 52b9 883e 8a53 bdbe 0e9b e73e 3e93 9fbe
00000240: 1458 4fbe a6e3 b43e 93cb cc3f 9e08 483f
00000250: e944 1f3f 0440 adbe 42bf 89bf d419 e4be
00000260: 8558 6bbf 967c c7be c6eb 0d3f 8d30 98be
00000270: 1b2e 003f c5a0 c53d c28b 11bf 5e8c ccbe
00000280: 1e16 413f f9c9 913d 27df bdbe 2a16 0dbe
00000290: 83ee 953e bae8 8cbe 7267 b8bf 0135 953e
000002a0: 5bf8 6bbf 5cff 64bf 3a86 9fbf a0a7 1bbf
000002b0: c1d4 4c3e 2bed 43be c5bf 89be be7a febd
000002c0: 5c52 44bf c44d 9e3e 3e16 b63f 46b8 68be
000002d0: 8f43 5f3e 08a4 fc3d c51b 0b3e f28d 39be
000002e0: 5e3f e93e 6ac2 ae3e 16c4 243f 7b08 8abe
000002f0: 6993 353d 500d bbbd ca2d bdbf 6f72 c5be
00000300: de92 133f 2e56 ac3e be29 3abf 2e03 17be
00000310: bf3f 54be a4b2 e2bc 4055 483d 95c6 433e
00000320: f5df 92bf 2f3e 2d3e 61f4 b73f 7b2b 733e
00000330: c44a 063f a941 8fbe 51b5 85bf 643a d5be
00000340: b243 92bc c80a c33e af72 bc3f fb2b 003f
00000350: 10d0 b33c 7c5c 46bf d2d2 55bf d212 5f3e
00000360: 22a3 ecbd fcff 04be 1314 183c b27c 42be
00000370: 073b f4be 4393 c63e 56f2 5abe 0d62 66ba
00000380: 7eab febe 5255 ab3e 58f4 c13e f498 3a3e
00000390: 465c 23be 6fb8 3abf 657a b8bf e916 bebd
000003a0: c073 1abd 238a ce3e e78b ac3d 2215 ca3d
000003b0: d713 a03e dc4c 90be b8aa 84bf 6b06 a8be
000003c0: 2362 dd3c 84f0 8fbe 8bc4 04bf 3acf aebe
000003d0: f1aa 12be 84d6 8bbe 32ac 1bbf 5ef2 233e
000003e0: 31c0 4fbf cc5b a43e 9719 c33d 42f5 89be
000003f0: 103a 50bf 916f a9be 5bfb a3bb c9f9 bcbe

fc1.bias f4 [64]
0.6972015 -0.37301603 0.6497579 0.56091404 0.7514348 -0.33681956 0.7410471 -0.10228393
0.6055728 0.8307468 -0.15757161 0.3236028 -0.4346843 -0.4323771 0.56981224 -0.49635893
0.6944003 0.79716194 0.7908577 -0.28129718 -0.09801157 0.4196355 0.6881013 -0.6152374
0.100494266 -0.29960933 -0.2177388 -0.13088274 -0.07359295 -0.3521808 -0.4523113 0.760443
0.8059573 -0.05588293 -0.12396248 -0.2863224 -0.6419346 -0.49321032 0.5151031 -0.41208386
-0.22962737 0.18023552 -0.085707165 -0.22313653 -0.40837526 -0.2338343 -0.07559203 -0.34324235
-0.47001216 0.8109449 -0.11273199 0.50354517 -0.4681249 0.114551514 0.8320335 0.6628249
-0.43329984 0.5786761 0.83788955 0.6063726 0.5787695 0.88145775 0.11178094 0.5243414
00000000: cc7b 323f f5fb bebe 8956 263f 1098 0f3f
00000010: 085e 403f 9d73 acbe 43b5 3d3f 3d7a d1bd
00000020: d206 1b3f d3ab 543f 745a 21be 44af a53e
00000030: f18e debe 8860 ddbe 37df 113f c222 febe
00000040: 38c4 313f ce12 4c3f a675 4a3f 2f06 90be
00000050: 4aba c8bd 77da d63e 6827 303f 3380 1dbf
00000060: f0cf cd3d 6566 99be ecf6 5ebe 2006 06be
00000070: e7b7 96bd 0b51 b4be 5995 e7be 64ac 423f
00000080: 3853 4e3f 80e5 64bd 0ae0 fdbd da98 92be
00000090: d355 24bf 1086 fcbe ccdd 033f a8fc d2be
000000a0: 7023 6bbe a98f 383e 3d87 afbd e77d 64be
000000b0: 9016 d1be 4272 6fbe ffcf 9abd 76bd afbe
000000c0: 6fa5 f0be 169a 4f3f 08e0 e6bd 56e8 003f
000000d0: 11ae efbe fc99 ea3d 2600 553f e5ae 293f
000000e0: 7ad9 ddbe 1e24 143f ee7f 563f 3c3b 1b3f
000000f0: 3d2a 143f 37a7 613f 68ed e43d 3d3b 063f

fc2.weight f4 [64, 64]
0.1624896 -0.008119941 0.27681908 0.2539169 0.17365393 -0.4356302 0.15777268 -2.0222592
0.1241606 0.24344347 -0.19819756 0.22931024 -1.0209471 -0.06194406 0.28058878 -0.09298016
0.22564577 0.42487934 0.17211148 -0.515708 -1.7748207 0.10056715 0.29835975 -0.28324583
-0.3871633 -0.59651345 -0.7198596 -1.3196702 -1.7139462 -1.024262 -1.1849461 0.29156905
0.352023 -1.5675052 -1.5970579 -0.025734197 -1.1535934 -0.23765054 0.12482379 -0.13314953
-0.3205206 0.08942181 -1.7961404 -0.038414057 -0.48819074 -0.064102225 -0.1398814 -1.198365
-0.28803965 0.3621537 -0.0038315556 -0.35269082 -0.9610955 0.121888354 0.20812972 0.30823365
0.022637293 0.40057865 0.36716118 -0.09499022 0.32650518 0.30332404 0.12867418 0.17202987
-0.023017136 0.113726124 -0.13139857 -0.07201496 0.048036825 -0.027233481 -0.05043745 -0.05209896
0.06139304 0.036838308 0.015435236 -0.0949113 -0.11297537 0.013520077 0.013461076 -0.057713985
-0.059599023 0.05948755 -0.015034227 0.0056397915 -0.030762568 -0.13527732 -0.14193565 -0.059751883
-0.063540176 0.0389442 -0.05857121 -0.048902765 0.096363276 0.023571176 0.08911279 -0.085406914
-0.07600403 0.04594256 -0.10075574 -0.081713006 -0.006037459 -0.045720086 -0.118359886 0.07414487
0.10052036 -0.0044764946 -0.02176416 -0.11578412 -0.045529842 0.031823203 0.058941364 -0.01580219
-0.049419105 0.0446917 -0.099549964 0.054542385 -0.048494354 -0.022971522 -0.049597286 -0.008796229
-0.0377748 0.06583742 -0.027874427 0.072917596 0.09545485 -0.085958 -0.09118864 0.07589969
0.2971232 -0.08125618 0.14953132 0.08191315 0.14412627 -0.5045319 0.45661244 -0.59886855
0.14799066 0.43243617 -0.3397112 0.26519796 -0.9550625 0.054469418 0.34279424 -0.088385105
0.36146048 0.35167655 0.19443882 -0.70265675 0.116244674 0.32154894 0.58128226 -0.2687161
-0.12666854 -0.09099283 -0.67188895 -0.28872728 -0.85301614 -0.8566673 -0.6559837 0.43623275
0.29470935 -0.048636153 -0.53209484 -0.019532692 -1.3633755 -0.77967703 0.4970777 -0.30243784
-0.1306188 0.25111166 -0.6604785 0.0384864 0.5466306 -0.02725837 -0.15882878 -0.46042845
-0.08688924 0.49464658 -0.107340895 -0.27709234 -1.008315 0.17013945 0.39494342 0.5714669
0.09774718 0.58314013 0.17736489 0.07132958 0.3251277 0.41729727 0.49093023 0.23213054
0.2290477 -0.0763273 0.08806472 0.10664446 0.36249912 -0.8513705 0.4300251 -0.76487225
0.17712624 0.34430715 -0.40969157 0.4627462 -0.95779335 -0.10837691 0.27866727 0.023597375
0.2989631 0.3410662 0.38014627 -0.860638 -0.55162114 0.28734204 0.45416233 -0.50251997
-0.32358062 -0.15864196 -0.84203684 -0.5055405 -1.1371053 -0.7363954 -0.72971195 0.36196172
0.3214611 -0.3122966 -0.74874634 0.06299206 -1.2447461 -0.95167273 0.37819728 -0.29659304
-0.30671427 0.23584838 -1.1100088 -0.081536695 0.36995617 -0.04356733 -0.03030386 -0.40737495
-0.012616723 0.42879876 -0.23399483 -0.16077432 -1.154756 0.0013320756 0.21697663 0.30920318
-0.11507097 0.4030134 0.15962122 0.117414646 0.27582708 0.45650327 0.37634292 0.34245268
00000000: ac63 263e 8009 05bc 3bbb 8d3e 6501 823e
00000010: 56d2 313e ec0a dfbe 298f 213e b26c 01c0
00000020: ea47 fe3d 3f49 793e 4df4 4abe 4ed0 6a3e
00000030: 65ae 82bf 0eb9 7dbd 55a9 8f3e 626c bebd
00000040: af0f 673e c989 d93e fe3d 303e 7105 04bf
00000050: 532d e3bf 26f6 cd3d 9cc2 983e 9905 91be
00000060: 453a c6be 1bb5 18bf b848 38bf f4ea a8bf
00000070: 9762 dbbf 041b 83bf 50ac 97bf 8a48 953e
00000080: 5c3c b43e 03a4 c8bf 656c ccbf 86d0 d2bc
00000090: f3a8 93bf aa5a 73be 9da3 ff3d 5a58 08be
000000a0: 471b a4be c822 b73d eee7 e5bf 0f58 1dbd
000000b0: 23f4 f9be 0748 83bd 123d 0fbe 0664 99bf
000000c0: ef79 93be 366c b93e d61a 7bbb e493 b4be
000000d0: 5b0a 76bf 9aa0 f93d f51f 553e cdd0 9d3e
000000e0: d871 b93c a518 cd3e 8dfc bb3e 3c8a c2bd
000000f0: b02b a73e 4a4d 9b3e 2ac3 033e 9928 303e
00000100: 6f8e bcbc 3ee9 e83d 598d 06be 947c 93bd
00000110: 43c2 443d c018 dfbc 8097 4ebd b865 55bd
00000120: 4577 7b3d c4e3 163d 12e4 7c3c db60 c2bd
00000130: a15f e7bd 5083 5d3c d88b 5c3c 8065 6cbd
00000140: 1b1e 74bd 38a9 733d 1e52 76bc 00ce b83b
00000150: c801 fcbc 2386 0abe 9457 11be 64be 74bd
00000160: 5a21 82bd f483 1f3d 5de8 6fbd 444e 48bd
00000170: 1c5a c53d 5718 c13c c480 b63d d2e9 aebd
00000180: 00a8 9bbd 442e 3c3d 0759 cebd 2659 a7bd
00000190: e0d5 c5bb fc44 3bbd ab66 f2bd 44d9 973d
000001a0: 9edd cd3d 8faf 92bb c04a b2bc 3a20 edbd
000001b0: 807d 3abd 0c59 023d 806c 713d 9873 81bc
000001c0: b06b 4abd a50e 373d dae0 cbbd d667 5f3d
000001d0: 04a2 46bd c62e bcbc 8626 4bbd 0f1e 10bc
000001e0: c0b9 1abd c5d5 863d e958 e4bc d255 953d
000001f0: d57d c33d bf0a b0bd 1cc1 babd 4c71 9b3d
00000200: 8820 983e a469 a6bd bd1e 193e 15c2 a73d
00000210: d695 133e 0129 01bf 1bc9 e93e 734f 19bf
00000220: dd8a 173e 4668 dd3e a0ee adbe 07c8 873e
00000230: fa7e 74bf 531b 5f3d ba82 af3e 4003 b5bd
00000240: 5911 b93e f30e b43e f81a 473e 50e1 33bf
00000250: b011 ee3d 10a2 a43e eace 143f 2895 89be
00000260: 66b5 01be 735a babd ea00 2cbf 10d4 93be
00000270: 445f 5abf 8c4e 5bbf 8cee 27bf e659 df3e
00000280: 25e4 963e b436 47bd 5e37 08bf 0603 a0bc
00000290: 1783 aebf ea98 47bf f880 fe3e 22d9 9abe
000002a0: efc0 05be b591 803e 1e15 29bf eaa3 1d3d
000002b0: fcef 0b3f f24c dfbc 03a4 22be 47bd ebbe
000002c0: fcf2 b1bd 5142 fd3e 8bd5 dbbd 0cdf 8dbe
000002d0: 7710 81bf 0939 2e3e 0636 ca3e a84b 123f
000002e0: ac2f c83d ac48 153f 249f 353e 3e15 923d
000002f0: 2377 a63e fda7 d53e 355b fb3e a1b3 6d3e
00000300: 7b8b 6a3e 7d51 9cbd 475b b43d 6968 da3d
00000310: 7c99 b93e 6bf3 59bf 402c dc3e abce 43bf
00000320: 9560 353e 0749 b03e 18c3 d1be 12ed ec3e
00000330: f231 75bf b7f4 ddbd 7aad 8e3e 484f c13c
00000340: b111 993e 3ba0 ae3e 88a2 c23e c652 5cbf
00000350: 0b37 0dbf 7f1e 933e f787 e83e 26a5 00bf
00000360: 5cac a5be 0a73 22be ba8f 57bf 1a6b 01bf
00000370: ab8c 91bf 6984 3cbf 67ce 3abf 0c53 b93e
00000380: 8d96 a43e 57e5 9fbe d7ad 3fbf fb01 813d
00000390: d753 9fbf d3a0 73bf 13a3 c13e 0bdb 97be
000003a0: a709 9dbe 3d82 713e c514 8ebf b6fc a6bd
000003b0: e56a bd3e a873 32bd cd3f f8bc 7393 d0be
000003c0: 5fb6 4ebc 838b db3e 579c 6fbe 06a2 24be
000003d0: 0bcf 93bf 0a99 ae3a 1f2f 5e3e e14f 9e3e
000003e0: 54aa ebbd c657 ce3e bf73 233e 1777 f03d
000003f0: 3539 8d3e ccba e93e 05b0 c03e f555 af3e

fc2.bias f4 [64]
0.43731844 -0.142397 0.30556032 0.34627798 -0.12143837 0.216823 0.2626326 0.073690176
-0.18252207 0.35884818 0.40932584 0.2264101 -0.12276528 -0.014486324 0.14472726 0.062189244
-0.08148623 -0.051943943 -0.12856832 0.38847923 0.34909075 0.33177608 0.46860218 0.07554141
-0.10640203 0.035471357 -0.02029711 0.065063044 -0.00035642384 0.24720652 0.47828355 0.047658205
-0.08114149 0.32074785 -0.1416293 0.3876212 -0.10131367 -0.14027964 0.32086477 0.25881585
0.30863863 0.08276319 0.036818646 0.08854758 0.0052481866 -0.0780851 -0.043858483 0.34939277
-0.16746779 0.25990638 0.35037023 0.35480225 0.48605338 0.29033017 0.4447995 -0.08902614
0.2848483 -0.12784117 0.015079992 -0.04972461 0.1497517 0.27943328 -0.071481 0.006768744
00000000: 34e8 df3e 85d0 11be 6772 9c3e 594b b13e
00000010: aeb4 f8bd d906 5e3e c877 863e e0ea 963d
00000020: 11e7 3abe f3ba b73e 2893 d13e 0dd8 673e
00000030: 5d6c fbbd 0c58 6dbc 6233 143e 26ba 7e3d
00000040: 41e2 a6bd 2cc3 54bd 6aa7 03be c0e6 c63e
00000050: 06bc b23e 8ede a93e a0ec ef3e 74b5 9a3d
00000060: 4fe9 d9bd 6a4a 113d 2046 a6bc c63f 853d
00000070: 66de bab9 b523 7d3e 95e1 f43e 4035 433d
00000080: 822d a6bd 1039 a43e 4507 11be 4976 c63e
00000090: 8b7d cfbd 77a5 0fbe 6348 a43e 8383 843e
000000a0: e205 9e3e bf7f a93d 26cf 163d 6f58 b53d
000000b0: fbf8 ab3b 15eb 9fbd f4a4 33bd 9ce3 b23e
000000c0: ad7c 2bbe 7312 853e ba63 b33e a4a8 b53e
000000d0: fddb f83e 28a6 943e c3bc e33e 5653 b6bd
000000e0: a3d7 913e cce8 02be 1212 773c 08ac 4bbd
000000f0: 8258 193e e111 8f3e a164 92bd 57cc dd3b

fc3.weight f4 [2, 64]
0.49397677 -0.11641814 0.6990308 0.737146 -0.07536265 0.6813583 0.6533281 -0.09356546
-1.075885 0.7351261 0.6049828 0.7147239 0.042480066 0.18300082 0.7933263 -0.014909122
-0.03437088 -0.096959814 0.0063422564 0.8068331 0.37703148 0.61227643 0.69294286 -0.012174917
-0.03866292 -0.009530965 -0.050644636 0.058139328 -0.5328144 0.7863237 0.6383359 0.0047262986
-0.00843364 0.7779931 -0.06270442 -0.7785948 -0.06131638 -0.07591396 0.1983159 0.73397183
-0.035405155 -0.051398464 -0.073768385 -0.044892263 -1.1285 -0.062210582 0.0013212562 0.69515246
-0.46543103 0.7972304 0.7752995 0.8013852 0.54111814 0.78503126 0.689091 0.05975607
0.73399293 -0.0515079 0.23654221 0.053380415 0.8166125 0.7590475 0.0030836826 -0.014671319
0.7862635 -0.020985859 0.6959551 0.4933519 -0.04101275 0.57881904 0.7721827 -0.08396923
0.11393586 0.8565374 0.6948071 0.7189253 0.8842386 -0.53932667 0.43210703 -0.053174637
-0.062638596 0.084853716 0.021713097 0.52889186 0.6419577 0.64413863 0.57834035 -0.02577008
0.06750839 -0.05777346 0.09111588 -0.5097211 0.9123863 0.5233378 0.7612354 -0.08141246
-0.02437234 0.54158455 -0.05956101 0.5452088 0.016368361 0.00928252 0.76035416 0.5159247
0.85290104 -0.035853267 -0.033331767 0.01339964 -1.1659309 0.05252662 0.11549826 0.65385884
-1.3846099 0.6155209 0.60493124 0.42228314 0.775883 0.70332795 0.61689407 -0.0024751723
0.5932059 -0.041614465 -0.43263465 0.109629616 0.61758983 0.5460441 -0.07039589 -0.025669191
00000000: 86ea fc3e a26c eebd aff3 323f 9ab5 3c3f
00000010: bc57 9abd 7f6d 2e3f 8340 273f 3f9f bfbd
00000020: 9ab6 89bf 3931 3c3f 27e0 1a3f 25f8 363f
00000030: 94ff 2d3d 9164 3b3e 6f17 4b3f 6445 74bc
00000040: 7bc8 0cbd de92 c6bd b4d2 cf3b 9d8c 4e3f
00000050: 450a c13e 26be 1c3f b464 313f 4e79 47bc
00000060: 035d 1ebd c427 1cbc c070 4fbd 8123 6e3d
00000070: 8666 08bf 834c 493f fb69 233f 11df 9a3b
00000080: 402d 0abc 8e2a 473f 2d6b 80bd fd51 47bf
00000090: e226 7bbd c778 9bbd 5313 4b3e 94e5 3b3f
000000a0: ff04 11bd 3287 52bd e113 97bd f3e0 37bd
000000b0: b072 90bf 86d0 7ebd 002e ad3a 83f5 313f
000000c0: fa4c eebe 4b17 4c3f 077a 463f 9527 4d3f
000000d0: b886 0a3f cff7 483f 4568 303f c8c2 743d
000000e0: f6e6 3b3f f3f9 52bd 1f38 723e 6ca5 5a3d
000000f0: 840d 513f f050 423f 9c17 4a3b f95f 70bc
00000100: 9148 493f 89ea abbc 1d2a 323f 9f98 fc3e
00000110: fcfc 27bd 7c2d 143f c4ad 453f 0ff8 abbd
00000120: 3457 e93d 0946 5b3f e1de 313f 7d0b 383f
00000130: 765d 623f 5011 0abf 223d dd3e a6cd 59bd
00000140: aa48 80bd c9c7 ad3d aadf b13c 7565 073f
00000150: 5757 243f 45e6 243f 1d0e 143f c61b d3bc
00000160: d741 8a3d dda3 6cbd f69a ba3d 157d 02bf
00000170: 2692 693f 77f9 053f 53e0 423f 93bb a6bd
00000180: 80a8 c7bc 49a5 0a3f 3ff6 73bd ce92 0b3f
00000190: f116 863c b615 183c 92a6 423f a413 043f
000001a0: b957 5a3f e0da 12bd e486 08bd 2a8a 5b3c
000001b0: 393d 95bf 2726 573d 5a8a ec3d 4b63 273f
000001c0: e63a b1bf c792 1d3f c6dc 1a3f 7f35 d83e
000001d0: 45a0 463f 4d0d 343f c5ec 1d3f 8036 22bb
000001e0: 58dc 173f ee73 2abd 4a82 ddbe 7e85 e03d
000001f0: 5e1a 1e3f 8cc9 0b3f b82b 90bd 3248 d2bc

fc3.bias f4 [2]
0.2872233 0.23315634
00000000: ef0e 933e 89c0 6e3e

fc1.weight f4 [64, 4]
0.14588381 0.3747624 -0.32873967 0.44680965 -0.084779814 0.12580839 -0.26821053 0.26874
0.35904422 -0.2744164 0.21936478 0.046411287 0.14424941 0.030577395 -0.022006474 -0.10175136
0.19978884 0.085160114 -0.47660214 0.09084634 -0.55507165 0.29193932 1.0653199 0.5986997
-0.5585148 -0.04773777 -0.06919822 -0.123552196 -0.9190359 -1.2708632 -0.78364515 -0.8821235
0.22764577 0.12307237 -0.43136245 0.2287025 -0.15665205 0.3946337 0.018541003 -0.114652164
0.56482476 0.09801415 0.9584919 0.6011319 0.18012719 -0.5959633 -0.7005027 -0.020967502
0.34195048 -0.34628204 -1.7270428 -0.5129861 -0.39608806 0.39973664 0.12894613 0.16041562
-0.056287393 0.10925466 0.44494924 -0.50363404 0.031481862 -0.3412701 0.154176 -0.17219114
-0.020320188 -0.10785085 0.23865694 -0.28570008 -0.2695465 -0.0874709 0.25260738 0.071727574
0.29500467 -0.47038895 -0.84053487 -0.40162373 0.005154619 0.58019215 1.3050095 0.62304443
-1.4447263 -1.1118081 -1.600807 -0.76464564 0.06529477 -0.07675537 0.34165207 -0.47711805
-0.38460556 0.20200966 0.06339016 -0.055642363 0.50159454 0.1906424 -1.309002 -0.37975138
0.6307283 -0.032716814 0.16759981 -0.37266225 -0.1817644 0.10622452 -0.9381036 -0.73837394
0.076926894 -0.47274417 -1.5323129 -0.47187752 -1.4777234 -0.38804808 0.75383544 -0.19192685
-0.7417371 -0.9800973 -1.6383733 -0.6771384 0.34235898 -0.3742083 -1.2607616 -0.58083594
0.23589827 -0.26493263 -1.5071526 -0.60495317 -0.49619195 -0.06102047 -0.16428626 -0.39768168
0.20853578 -0.07325979 0.35312563 0.16464347 -1.3274276 -0.32684508 -1.4383821 -0.26243567
-1.4289311 -0.7662343 -0.38982874 -0.4850876 0.26703888 -0.36977798 0.45235485 -0.31167024
-0.20248443 0.35329932 1.5999626 0.7813815 0.6228201 -0.33716354 -1.0732181 -0.44564962
-0.91710997 -0.38912395 0.56398267 -0.29013216 0.50070673 0.096789785 -0.56845903 -0.3980774
0.7540468 0.071260184 -0.37230763 -0.13749678 0.29290578 -0.276006 -1.438872 0.2953596
-0.9173735 -0.8918759 -1.2397931 -0.60342973 0.20003034 -0.19133441 -0.2690412 -0.12425755
-0.76932365 0.30756515 1.4204979 -0.22952408 0.21779215 0.12348035 0.13570355 -0.18082488
0.45482373 0.34129402 0.6371545 -0.2745619 0.0453961 -0.08985526 -1.4766794 -0.3882262
0.5762472 0.33689493 -0.7265442 -0.14712366 -0.20738097 -0.027940976 0.05325515 0.19332945
-1.1486402 0.16697803 1.4351373 0.23775221 0.52477247 -0.28029916 -1.0507175 -0.41598403
-0.0179361 0.38099355 1.4730734 0.5034179 0.021852132 -0.7751691 -0.8343954 0.21867076
-0.11559549 -0.13024954 0.013497083 -0.1871046 -0.47713605 0.38750085 -0.20952787 0.0015831271
-0.49740213 0.33463532 0.37881732 0.1822241 -0.15737137 -0.7282457 -1.4330915 -0.08805449
-0.037714377 0.40332165 0.08897365 0.10076293 0.31295937 -0.2836316 -1.0368711 -0.32026738
0.027071532 -0.28166598 -0.5148896 -0.33772573 -0.14300965 -0.2733021 -0.60347587 0.1634342
-0.8121393 0.3206343 0.102693014 -0.26449054 -0.8122557 -0.33165336 0.0028194713 -0.36034638
00000000: 9162 153e dbe0 bf3e 9150 a8be 3cc4 e43e
00000010: 0aa1 adbd ead3 003e e452 89be 4a98 893e
00000020: a5d4 b73e 4e80 8cbe 29a1 603e c319 3e3d
00000030: 1eb6 133e 727d fa3c ec46 b4bc 0463 d0bd
00000040: 7295 4c3e 6d68 ae3d 3205 f4be a50d ba3d
00000050: 2d19 0ebf 1279 953e 675c 883f 6244 193f
00000060: d3fa 0ebf ae88 43bd ccb7 8dbd ef08 fdbd
00000070: f045 6bbf a5ab a2bf f89c 48bf d8d2 61bf
00000080: f91b 693e 5e0d fc3d 8adb dcbe fd30 6a3e
00000090: 6569 20be 6e0d ca3e 4de3 973c c1ce eabd
000000a0: 5b98 103f a5bb c83d ba5f 753f c8e3 193f
000000b0: 4373 383e 0d91 18bf 2554 33bf 0ac4 abbc
000000c0: 2214 af3e e14b b1be bd0f ddbf 0f53 03bf
000000d0: 0ecc cabe 48aa cc3e 740a 043e fe43 243e
000000e0: 9c8d 66bd e8c0 df3d 63d0 e33e 29ee 00bf
000000f0: 20f3 003d f4ba aebe 50e0 1d3e e052 30be
00000100: 8676 a6bc e8e0 dcbd 7c62 743e 4847 92be
00000110: 0002 8abe f123 b3bd c155 813e e8e5 923d
00000120: da0a 973e d2d6 f0be 4b2d 57bf a0a1 cdbe
00000130: 14e8 a83b 7987 143f 8d0a a73f d77f 1f3f
00000140: cbec b8bf ba4f 8ebf 3ee7 ccbf d1bf 43bf
00000150: 44b9 853d eb31 9dbd 05ed ae3e d148 f4be
00000160: 05eb c4be 9fdb 4e3e b3d2 813d 3fe9 63bd
00000170: 8068 003f c337 433e 618d a7bf c66e c2be
00000180: 6977 213f 1102 06bd 499f 2b3e 96cd bebe
00000190: 7220 3abe 3e8c d93d 8f27 70bf 1306 3dbf
000001a0: d98b 9d3d 860b f2be d422 c4bf ee99 f1be
000001b0: 0a26 bdbf 3dae c6be 5cfb 403f 7988 44be
000001c0: 7ce2 3dbf a8e7 7abf 37b6 d1bf f158 2dbf
000001d0: ad49 af3e 3b98 bfbe a360 a1bf aab1 14bf
000001e0: 518f 713e 40a5 87be 60ea c0bf 36de 1abf
000001f0: df0c febe 9af0 79bd a83a 28be ef9c cbbe
00000200: 678a 553e 3b09 96bd e2cc b43e 4c98 283e
00000210: 26e9 a9bf 3d58 a7be e81c b8bf f85d 86be
00000220: 37e7 b6bf ee27 44bf a297 c7be 675d f8be
00000230: 52b9 883e 8a53 bdbe 0e9b e73e 3e93 9fbe
00000240: 1458 4fbe a6e3 b43e 93cb cc3f 9e08 483f
00000250: 2371 1f3f b3a0 acbe 365f 89bf 302c e4be
00000260: b8c7 6abf 413b c7be 2b61 103f 348c 94be
00000270: 512e 003f b939 c63d 8886 11bf cdd0 cbbe
00000280: 3609 413f dcf0 913d 1b9f bebe f5cb 0cbe
00000290: bff7 953e a950 8dbe f52c b8bf 6039 973e
000002a0: fdd8 6abf fb51 64bf 8ab1 9ebf 5f7a 1abf
000002b0: c1d4 4c3e 2bed 43be c5bf 89be be7a febd
000002c0: 65f2 44bf 2e79 9d3e e0d2 b53f 5c08 6bbe
000002d0: e804 5f3e 44e3 fc3d dff5 0a3e 282a 39be
000002e0: a8de e83e 17be ae3e 8f1c 233f 6193 8cbe
000002f0: 43f1 393d 0906 b8bd d503 bdbf 96c5 c6be
00000300: f084 133f 7e7d ac3e cdfe 39bf 96a7 16be
00000310: ad5b 54be 79e4 e4bc 1222 5a3d 28f8 453e
00000320: a406 93bf 4afc 2a3e 94b2 b73f 5175 733e
00000330: 7d57 063f 5f83 8fbe e97d 86bf dcfb d4be
00000340: baee 92bc 9611 c33e ab8d bc3f ffdf 003f
00000350: 3e03 b33c 7b71 46bf f09a 55bf 3aeb 5f3e
00000360: 54bd ecbd 2360 05be df22 5d3c 5998 3fbe
00000370: 2d4b f4be 8366 c63e 798e 56be ee80 cf3a
00000380: 7eab febe 5255 ab3e 58f4 c13e f498 3a3e
00000390: f625 21be 4f6e 3abf 8b6f b7bf ea55 b4bd
000003a0: 647a 1abd 2d80 ce3e d137 b63d cc5c ce3d
000003b0: 363c a03e 2938 91be 31b8 84bf 16fa a3be
000003c0: 1ec5 dd3c 8636 90be cecf 03bf 63ea acbe
000003d0: 1f71 12be 41ee 8bbe 657d 1abf 4c5b 273e
000003e0: 5ce8 4fbf 2e2a a43e b750 d23d 4e6b 87be
000003f0: fdef 4fbf 78ce a9be e1c6 383b 527f b8be

fc1.bias f4 [64]
0.6971977 -0.37301603 0.6497927 0.5609928 0.751452 -0.33770388 0.7407946 -0.10373352
0.60557836 0.8307107 -0.15876545 0.32369646 -0.43492055 -0.4323771 0.5697796 -0.49635893
0.6943658 0.79712725 0.7909849 -0.28078786 -0.094785735 0.4196226 0.6880431 -0.61500186
0.10060549 -0.29490197 -0.22201297 -0.1316448 -0.07269652 -0.3604162 -0.45286933 0.760018
0.8059268 -0.053373415 -0.12341323 -0.2863224 -0.6419346 -0.49285778 0.51624453 -0.41255432
-0.2306465 0.17974892 -0.08386971 -0.22313653 -0.40582043 -0.23480178 -0.074323855 -0.34402043
-0.47094226 0.8108928 -0.119012214 0.5039233 -0.46851337 0.115825616 0.83204114 0.66280913
-0.43329984 0.5795394 0.8378447 0.6071013 0.578905 0.8815888 0.112349026 0.5251968
00000000: 8c7b 323f f5fb bebe d058 263f 399d 0f3f
00000010: 295f 403f 86e7 acbe b7a4 3d3f 3d72 d4bd
00000020: 2f07 1b3f 75a9 543f 6993 22be 8bbb a53e
00000030: e8ad debe 8860 ddbe 13dd 113f c222 febe
00000040: f5c1 313f 8810 4c3f fd7d 4a3f 6dc3 8fbe
00000050: 061f c2bd c6d8 d63e 9823 303f c370 1dbf
00000060: 400a ce3d 64fd 96be 5e57 63be e5cd 06be
00000070: eae1 94bd 7988 b8be 7dde e7be 8a90 423f
00000080: 3851 4e3f 159e 5abd 13c0 fcbd da98 92be
00000090: d355 24bf db57 fcbe 9a28 043f 523a d3be
000000a0: 992e 6cbe 1a10 383e e2c3 abbd e77d 64be
000000b0: b2c7 cfbe e16f 70be 1b37 98bd 7223 b0be
000000c0: 581f f1be ac96 4f3f adbc f3bd 1e01 013f
000000d0: fce0 efbe fb35 ed3d a600 553f dcad 293f
000000e0: 7ad9 ddbe b25c 143f fe7c 563f fe6a 1b3f
000000f0: 1e33 143f ceaf 613f 3f17 e63d 4c73 063f

fc2.weight f4 [64, 64]
0.16250902 -0.008119941 0.2768909 0.25390622 0.17358635 -0.4356169 0.15814628 -2.0066597
0.12407441 0.24361414 -0.19915354 0.22835328 -1.0209471 -0.06194406 0.28074092 -0.09298016
0.22593376 0.42565122 0.17185752 -0.51772803 -1.7609893 0.10059967 0.29903126 -0.28641886
-0.38817662 -0.6038102 -0.7198596 -1.3029803 -1.6990461 -1.024262 -1.1849461 0.29181942
0.35223696 -1.553534 -1.5817585 -0.025734197 -1.1535934 -0.24087478 0.124478556 -0.13526031
-0.32201266 0.08871207 -1.7810572 -0.038414057 -0.48819074 -0.06634472 -0.14052442 -1.198365
-0.28985497 0.36276042 -0.00022043682 -0.35356483 -0.9639255 0.12266011 0.2085083 0.30884343
0.022637293 0.39936084 0.3673118 -0.095504984 0.3264987 0.30377614 0.12976614 0.17151485
-0.023017136 0.113726124 -0.13139857 -0.07201496 0.048036825 -0.027233481 -0.05043745 -0.05209896
0.06139304 0.036838308 0.015435236 -0.0949113 -0.11297537 0.013520077 0.013461076 -0.057713985
-0.059599023 0.05948755 -0.015034227 0.0056397915 -0.030762568 -0.13527732 -0.14193565 -0.059751883
-0.063540176 0.0389442 -0.05857121 -0.048902765 0.096363276 0.023571176 0.08911279 -0.085406914
-0.07600403 0.04594256 -0.10075574 -0.081713006 -0.006037459 -0.045720086 -0.118359886 0.07414487
0.10052036 -0.0044764946 -0.02176416 -0.11578412 -0.045529842 0.031823203 0.058941364 -0.01580219
-0.049419105 0.0446917 -0.099549964 0.054542385 -0.048494354 -0.022971522 -0.049597286 -0.008796229
-0.0377748 0.06583742 -0.027874427 0.072917596 0.09545485 -0.085958 -0.09118864 0.07589969
0.29659858 -0.08125618 0.14940861 0.0814886 0.14369547 -0.5045187 0.45692265 -0.59516406
0.14750658 0.4319366 -0.3406033 0.2658625 -0.95394456 0.054469418 0.34231254 -0.088385105
0.3614177 0.35213006 0.19441633 -0.705223 0.1199183 0.32117695 0.5813516 -0.2709552
-0.12764004 -0.09248906 -0.6675237 -0.28510562 -0.84930617 -0.8542586 -0.65481645 0.4363227
0.29453436 -0.044942748 -0.52843475 -0.019532692 -1.3633755 -0.78057504 0.4980686 -0.30378067
-0.13156813 0.25188693 -0.6567767 0.0384864 0.5475299 -0.028917415 -0.15953244 -0.4587255
-0.088178314 0.49492326 -0.10437664 -0.2778255 -1.0132258 0.17259787 0.3950705 0.57133776
0.09774718 0.58365595 0.17685628 0.071001105 0.32532728 0.4177829 0.4920055 0.2327846
0.22893158 -0.0763273 0.08803832 0.106287025 0.36221683 -0.85135746 0.42918482 -0.7618188
0.17695712 0.34381437 -0.41040382 0.46198416 -0.95779335 -0.10837691 0.27791873 0.023597375
0.2985157 0.34095794 0.379603 -0.8632565 -0.5487512 0.28657943 0.4537047 -0.5038876
-0.32437336 -0.16321577 -0.83623654 -0.5026973 -1.134042 -0.7363954 -0.72971195 0.3607288
0.32140756 -0.30943862 -0.74574393 0.06299206 -1.2447461 -0.9516171 0.37671232 -0.29714087
-0.30708566 0.23680517 -1.1069458 -0.081536695 0.36995617 -0.0444332 -0.03079102 -0.40737495
-0.01327862 0.42872638 -0.23355494 -0.16151863 -1.1605802 0.001464454 0.21659394 0.30863148
-0.11507097 0.40161568 0.15930054 0.11678199 0.2751676 0.45639566 0.3734383 0.34029815
00000000: c468 263e 8009 05bc a5c4 8d3e ffff 813e
00000010: 9fc0 313e 2e09 dfbe 19f1 213e 1d6d 00c0
00000020: b91a fe3d fc75 793e e8ee 4bbe 71d5 693e
00000030: 65ae 82bf 0eb9 7dbd 46bd 8f3e 626c bebd
00000040: 2e5b 673e f5ee d93e 6bfb 2f3e d389 04bf
00000050: 1968 e1bf 3307 ce3d a01a 993e 7ea5 92be
00000060: 16bf c6be 4e93 1abf b848 38bf 0fc8 a6bf
00000070: 587a d9bf 041b 83bf 50ac 97bf 5b69 953e
00000080: 6758 b43e 34da c6bf 1077 cabf 86d0 d2bc
00000090: f3a8 93bf e1a7 76be 9dee fe3d ae81 0abe
000000a0: d8de a4be acae b53d aff9 e3bf 0f58 1dbd
000000b0: 23f4 f9be bedf 87bd a2e5 0fbe 0664 99bf
000000c0: df67 94be bcbb b93e 0f25 67b9 7306 b5be
000000d0: d2c3 76bf 3935 fb3d 3383 553e ba20 9e3e
000000e0: d871 b93c 0679 cc3e 4b10 bc3e 1e98 c3bd
000000f0: d62a a73e 8c88 9b3e 6ae1 043e 97a1 2f3e
00000100: 6f8e bcbc 3ee9 e83d 598d 06be 947c 93bd
00000110: 43c2 443d c018 dfbc 8097 4ebd b865 55bd
00000120: 4577 7b3d c4e3 163d 12e4 7c3c db60 c2bd
00000130: a15f e7bd 5083 5d3c d88b 5c3c 8065 6cbd
00000140: 1b1e 74bd 38a9 733d 1e52 76bc 00ce b83b
00000150: c801 fcbc 2386 0abe 9457 11be 64be 74bd
00000160: 5a21 82bd f483 1f3d 5de8 6fbd 444e 48bd
00000170: 1c5a c53d 5718 c13c c480 b63d d2e9 aebd
00000180: 00a8 9bbd 442e 3c3d 0759 cebd 2659 a7bd
00000190: e0d5 c5bb fc44 3bbd ab66 f2bd 44d9 973d
000001a0: 9edd cd3d 8faf 92bb c04a b2bc 3a20 edbd
000001b0: 807d 3abd 0c59 023d 806c 713d 9873 81bc
000001c0: b06b 4abd a50e 373d dae0 cbbd d667 5f3d
000001d0: 04a2 46bd c62e bcbc 8626 4bbd 0f1e 10bc
000001e0: c0b9 1abd c5d5 863d e958 e4bc d255 953d
000001f0: d57d c33d bf0a b0bd 1cc1 babd 4c71 9b3d
00000200: c5db 973e a469 a6bd 92fe 183e 7fe3 a63d
00000210: e824 133e 2328 01bf c4f1 e93e ac5c 18bf
00000220: f70b 173e cb26 dd3e 8e63 aebe 211f 883e
00000230: b635 74bf 531b 5f3d 9743 af3e 4003 b5bd
00000240: be0b b93e 644a b43e 1315 473e 7f89 34bf
00000250: ba97 f53d 4e71 a43e 75d3 143f a4ba 8abe
00000260: 12b4 02be e76a bdbd d5e2 2abf 5df9 91be
00000270: 216c 59bf b1b0 5abf 0da2 27bf b065 df3e
00000280: 35cd 963e e315 38bd 8047 07bf 0603 a0bc
00000290: 1783 aebf c4d3 47bf d902 ff3e 2489 9bbe
000002a0: ccb9 06be 53f7 803e 8522 28bf eaa3 1d3d
000002b0: eb2a 0c3f 37e4 ecbc 795c 23be 12de eabe
000002c0: d596 b4bd 9566 fd3e 6bc3 d5bd 253f 8ebe
000002d0: 62b1 81bf 7fbd 303e ae46 ca3e 3143 123f
000002e0: ac2f c83d 7a6a 153f d019 353e 0769 913d
000002f0: 4c91 a63e a4e7 d53e 25e8 fb3e 165f 6e3e
00000300: 0a6d 6a3e 7d51 9cbd 6f4d b43d 03ad d93d
00000310: 7c74 b93e 90f2 59bf 1dbe db3e 8f06 43bf
00000320: 3f34 353e 7008 b03e 7320 d2be 3089 ec3e
00000330: f231 75bf b7f4 ddbd 5d4b 8e3e 484f c13c
00000340: 0dd7 983e 0a92 ae3e 535b c23e 61fe 5cbf
00000350: f57a 0cbf 8aba 923e fc4b e83e c7fe 00bf
00000360: 4414 a6be 0922 27be 9913 56bf c5b0 00bf
00000370: 4a28 91bf 6984 3cbf 67ce 3abf 72b1 b83e
00000380: 888f a43e bd6e 9ebe 13e9 3ebf fb01 813d
00000390: d753 9fbf 2e9d 73bf 70e0 c03e d922 98be
000003a0: 553a 9dbe 0e7d 723e 66b0 8dbf b6fc a6bd
000003b0: e56a bd3e 96ff 35bd 733d fcbc 7393 d0be
000003c0: 928e 59bc 0682 db3e 0729 6fbe 2465 25be
000003d0: e48d 94bf ecf2 bf3a cdca 5d3e f204 9e3e
000003e0: 54aa ebbd 92a0 cd3e ae1f 233e 652b ef3d
000003f0: c5e2 8c3e b1ac e93e 4e33 bf3e 8f3b ae3e

fc2.bias f4 [64]
0.43753085 -0.142397 0.3053929 0.345979 -0.12143837 0.21806826 0.26268858 0.073690176
-0.18252207 0.35831928 0.40838888 0.22742927 -0.12519416 -0.013464863 0.14541617 0.062189244
-0.08148623 -0.051943943 -0.12856832 0.38930428 0.34873343 0.33162513 0.46850497 0.07554141
-0.10640203 0.035471357 -0.02029711 0.065948956 0.0004083331 0.24785724 0.47806725 0.047658205
-0.08114149 0.32067344 -0.1416293 0.38660285 -0.10131367 -0.14027964 0.31991535 0.258785
0.3078982 0.08276319 0.036818646 0.08854758 0.0052481866 -0.0780851 -0.043858483 0.34954605
-0.16746779 0.25957218 0.35057828 0.35505718 0.4863833 0.291001 0.4443875 -0.08902614
0.28557402 -0.12784117 0.016190317 -0.04972461 0.1496094 0.27880743 -0.071481 0.006768744
00000000: 0b04 e03e 85d0 11be 755c 9c3e 2924 b13e
00000010: aeb4 f8bd 494d 5f3e 1e7f 863e e0ea 963d
00000020: 11e7 3abe a075 b73e 5918 d13e 38e3 683e
00000030: e632 00be bb9b 5cbc fae7 143e 26ba 7e3d
00000040: 41e2 a6bd 2cc3 54bd 6aa7 03be e452 c73e
00000050: 308d b23e c5ca a93e e2df ef3e 74b5 9a3d
00000060: 4fe9 d9bd 6a4a 113d 2046 a6bc 3f10 873d
00000070: 8a15 d639 4ace 7d3e 3bc5 f43e 4035 433d
00000080: 822d a6bd 4f2f a43e 4507 11be cff0 c53e
00000090: 8b7d cfbd 77a5 0fbe f2cb a33e 787f 843e
000000a0: d5a4 9d3e bf7f a93d 26cf 163d 6f58 b53d
000000b0: fbf8 ab3b 15eb 9fbd f4a4 33bd b3f7 b23e
000000c0: ad7c 2bbe a5e6 843e ff7e b33e 0eca b53e
000000d0: 3b07 f93e 15fe 943e c286 e33e 5653 b6bd
000000e0: c236 923e cce8 02be 8ea1 843c 08ac 4bbd
000000f0: 3533 193e d9bf 8e3e a164 92bd 57cc dd3b

fc3.weight f4 [2, 64]
0.4936244 -0.11641814 0.6997745 0.7375059 -0.07536265 0.681005 0.6530499 -0.09356546
-1.075885 0.7356237 0.6055747 0.7142946 0.031020606 0.18438892 0.7940069 -0.014909122
-0.03437088 -0.096959814 0.0063422564 0.80768895 0.37754813 0.61321515 0.69367284 -0.012174917
-0.03866292 -0.009530965 -0.050644636 0.059709705 -0.5328144 0.78535193 0.638131 0.0047262986
-0.00843364 0.778762 -0.06270442 -0.7780076 -0.06131638 -0.07591396 0.19870336 0.7347607
-0.034582924 -0.051398464 -0.073768385 -0.044892263 -1.1285 -0.062210582 0.0013212562 0.6948983
-0.46543103 0.7957884 0.7761738 0.80237496 0.54094064 0.78414065 0.68943 0.05975607
0.73461056 -0.0515079 0.23746939 0.053380415 0.81533974 0.75977254 0.0030836826 -0.014671319
0.78551763 -0.020985859 0.69411796 0.4917481 -0.04101275 0.5779355 0.77161455 -0.08396923
0.11393586 0.85482883 0.69295037 0.7179719 0.88545305 -0.5393766 0.4296668 -0.053174637
-0.062638596 0.084853716 0.021713097 0.5266833 0.6403094 0.6422023 0.57642764 -0.02577008
0.06750839 -0.05777346 0.09111588 -0.5093316 0.9138937 0.52263355 0.7607553 -0.08141246
-0.02437234 0.5394734 -0.05956101 0.5455464 0.016368361 0.00928252 0.7588321 0.51408213
0.85090417 -0.035853267 -0.033331767 0.01339964 -1.1659309 0.05252662 0.11549826 0.6533043
-1.3846099 0.61420786 0.6026911 0.42015806 0.77527547 0.7024974 0.61534876 -0.0024751723
0.5910366 -0.041614465 -0.4315921 0.109629616 0.61616343 0.54390156 -0.07039589 -0.025669191
00000000: 56bc fc3e a26c eebd 6c24 333f 30cd 3c3f
00000010: bc57 9abd 5856 2e3f 472e 273f 3f9f bfbd
00000020: 9ab6 89bf d651 3c3f f206 1b3f 03dc 363f
00000030: ed1e fe3c 73d0 3c3e 0944 4b3f 6445 74bc
00000040: 7bc8 0cbd de92 c6bd b4d2 cf3b b4c4 4e3f
00000050: fd4d c13e abfb 1c3f 8b94 313f 4e79 47bc
00000060: 035d 1ebd c427 1cbc c070 4fbd 2a92 743d
00000070: 8666 08bf d30c 493f 8e5c 233f 11df 9a3b
00000080: 402d 0abc f25c 473f 2d6b 80bd 822b 47bf
00000090: e226 7bbd c778 9bbd e578 4b3e 4719 3c3f
000000a0: d3a6 0dbd 3287 52bd e113 97bd f3e0 37bd
000000b0: b072 90bf 86d0 7ebd 002e ad3a dbe4 313f
000000c0: fa4c eebe cab8 4b3f 53b3 463f 7268 4d3f
000000d0: 167b 0a3f 71bd 483f 7c7e 303f c8c2 743d
000000e0: 700f 3c3f f3f9 52bd 2d2b 733e 6ca5 5a3d
000000f0: 1bba 503f 7480 423f 9c17 4a3b f95f 70bc
00000100: af17 493f 89ea abbc b7b1 313f 68c6 fb3e
00000110: fcfc 27bd 95f3 133f 8888 453f 0ff8 abbd
00000120: 3457 e93d 10d6 5a3f 3265 313f 02cd 373f
00000130: 0dad 623f 9614 0abf 49fd db3e a6cd 59bd
00000140: aa48 80bd c9c7 ad3d aadf b13c b7d4 063f
00000150: 51eb 233f 5f67 243f c390 133f c61b d3bc
00000160: d741 8a3d dda3 6cbd f69a ba3d 8e63 02bf
00000170: f0f4 693f 50cb 053f dcc0 423f 93bb a6bd
00000180: 80a8 c7bc ee1a 0a3f 3ff6 73bd eea8 0b3f
00000190: f116 863c b615 183c d242 423f e39a 033f
000001a0: dbd4 593f e0da 12bd e486 08bd 2a8a 5b3c
000001b0: 393d 95bf 2726 573d 5a8a ec3d f33e 273f
000001c0: e63a b1bf ba3c 1d3f f749 1a3f f51e d73e
000001d0: 7478 463f dfd6 333f 7f87 1d3f 8036 22bb
000001e0: 2d4e 173f ee73 2abd a4f9 dcbe 7e85 e03d
000001f0: e3bc 1d3f 223d 0b3f b82b 90bd 3248 d2bc

fc3.bias f4 [2]
0.28771922 0.23238614
00000000: ef4f 933e a2f6 6d3e

exp_avg f4 [64, 4]
-0.009511515 -0.0052808593 0.0014915515 0.005810839 -6e-45 -6e-45 6e-45 6e-45
-0.010075628 -0.0082379365 0.00055907876 0.0047907066 -0.014502647 -0.011396452 0.00018533305 0.00278079
-0.021638475 -0.016821139 0.00019381686 0.0034674143 -5.5682663e-06 0.0007765764 2.5427118e-05 -0.0012409221
0.03172957 0.018766018 0.0030779648 0.008144823 -0.010887934 0.028160103 0.0011651794 -0.041646805
-0.0149632385 -0.011712525 0.00044755777 0.0041431743 -0.022817172 -0.018045023 0.00030121842 0.004414936
0.037799455 0.031359844 0.00076358684 -0.006952129 0.009889903 0.0006680039 0.0011379463 0.00673523
0.0496523 0.055888902 0.007959737 0.009236512 6e-45 6e-45 6e-45 -6e-45
-0.019273784 -0.015050376 0.000593112 0.0051495153 0.0 0.0 0.0 0.0
-0.022489242 -0.018328551 0.00025714157 0.0047700847 -0.032670233 -0.028031088 0.00044558253 0.009260788
-0.03511009 -0.029130084 -0.0007439076 0.0018687826 0.080506355 0.050368875 0.0033872533 0.014525661
-0.017057016 0.011767724 -4.1560274e-05 -0.037650626 -0.011016344 -0.008265133 0.00040506577 0.0027584138
-0.034878343 -0.028759526 0.00056787394 0.008934601 0.04650316 0.030635783 0.0018462527 0.0046608998
0.011746242 0.0068816505 -0.0021871582 -0.009824537 -0.0069720265 -0.0010650093 -0.0012485763 -0.010980291
-0.008044337 -0.0100140525 -0.0011354692 0.005454388 -0.008393875 0.0022694361 0.0006379987 -0.004541267
-0.0052638873 0.03407218 0.0025534083 -0.0358629 0.021808848 0.025102409 0.0035305845 0.0033749435
0.018781481 0.020860333 0.0030024697 0.0038460752 0.017573126 0.0066082175 0.002335249 0.010117029
-0.017236577 -0.014076692 0.0006564113 0.0063419654 -0.011691262 0.012101696 9.140045e-05 -0.02937098
-0.003544718 0.012072185 0.0017065612 -0.008165631 -6e-45 -6e-45 -6e-45 -6e-45
6e-45 6e-45 6e-45 6e-45 0.024762325 0.017341586 0.0012907196 0.0010770934
0.008363677 -0.0019367482 0.0012515429 0.009795962 0.03703758 0.0226299 0.001147745 0.005777984
0.025385052 0.014976862 0.0003638407 0.0008348278 -0.016801894 -0.01378847 -0.00036241292 0.00037088082
-0.009310181 0.02958373 0.0017822663 -0.036470536 6e-45 6e-45 6e-45 -6e-45
-0.00032182716 -0.00024730104 -4.578594e-05 -0.00019519572 0.009050531 0.0054035555 0.00027090104 0.0015612573
0.011627234 0.00871954 -0.0004802262 -0.0052614263 0.0043223416 0.0055335374 0.0007276246 -3.2728403e-05
0.019965608 0.012420867 0.0006777956 0.0028530303 -0.031915236 -0.02695057 0.00039075426 0.00841803
0.0015261684 0.0013055255 0.00043844638 0.0033394136 0.006527767 0.008029528 -0.0023440435 -0.017326223
0.09557043 0.06112078 0.004240069 0.010188438 0.0031002306 -0.00061210775 -2.9165633e-06 0.0017495526
-0.030203074 -0.025050238 7.7303484e-05 0.0056524076 -0.03706695 -0.030282866 0.00045019155 0.008369555
0.0 0.0 0.0 0.0 -0.001077343 -0.011222621 0.0004568571 0.009843008
-0.01731925 -0.013674939 0.0006541633 0.0057136533 -0.02478556 -0.018740643 -0.0018160309 -0.007821661
-0.02973563 -0.024532676 -0.0004150036 0.0023731934 -0.033342887 -0.028571956 9.833631e-05 0.0057975375
0.003970934 0.00020273587 0.0007041203 0.0033045113 0.0047505167 -0.0030427303 0.0005689568 0.006180334
00000000: 2fd6 1bbc 0f0b adbb 2a80 c33a da68 be3b
00000010: 0400 0080 0400 0080 0400 0000 0400 0000
00000020: 3f14 25bc 69f8 06bc 248f 123a 5cfb 9c3b
00000030: 839c 6dbc 2fb8 3abc f655 4239 ea3d 363b
00000040: 2c43 b1bc 7ccc 89bc 513b 4b39 8f3d 633b
00000050: 0bd7 bab6 2993 4b3a 524c d537 70a6 a2ba
00000060: def6 013d 31bb 993c aeb7 493b dd71 053c
00000070: 4e63 32bc 04b0 e63c efb8 983a d795 2abd
00000080: 5f28 75bc e4e5 3fbc 30a6 ea39 77c3 873b
00000090: 14eb babc 28d3 93bc daec 9d39 2bab 903b
000000a0: 9ad3 1a3d 2e73 003d 722b 483a afce e3bb
000000b0: 4209 223c fc1c 2f3a 2427 953a 34b3 dc3b
000000c0: 3660 4b3d c3eb 643d 8f69 023c bd54 173c
000000d0: 0400 0000 0400 0000 0400 0000 0400 0080
000000e0: 0ee4 9dbc da95 76bc 137b 1b3a 44bd a83b
000000f0: 0000 0000 0000 0000 0000 0000 0000 0000
00000100: 5c3b b8bc c225 96bc f5d0 8639 5f4e 9c3b
00000110: 39d1 05bd 74a1 e5bc 139d e939 8fba 173c
00000120: 99cf 0fbd 37a2 eebc cb02 43ba f0f1 f43a
00000130: 84e0 a43d 984f 4e3d aefc 5d3b 0afd 6d3c
00000140: 28bb 8bbc 69cd 403c 0151 2eb8 8b37 1abd
00000150: e57d 34bc 7b6a 07bc 025f d439 81c6 343b
00000160: 98dc 0ebd 1999 ebbc 60dd 143a 6f62 123c
00000170: 197a 3e3d e5f7 fa3c f6fd f13a 76ba 983b
00000180: 4f73 403c 787f e13b 6d56 0fbb 18f7 20bc
00000190: 9975 e4bb c897 8bba 45a7 a3ba aee6 33bc
000001a0: 65cc 03bc fb11 24bc 06d4 94ba b9ba b23b
000001b0: 7786 09bc d2ba 143b 5e3f 273a e9ce 94bb
000001c0: b07c acbb 458f 0b3d 1557 273b fae4 12bd
000001d0: 78a8 b23c 91a3 cd3c 6161 673b 282e 5d3b
000001e0: 9fdb 993c 4ae3 aa3c 15c5 443b 6f0e 7c3b
000001f0: 84f5 8f3c bf89 d83b fa0a 193b e5c1 253c
00000200: b933 8dbc eda1 66bc 0413 2c3a 43d0 cf3b
00000210: b58c 3fbc 3146 463c 3eae bf38 699b f0bc
00000220: 804e 68bb 6aca 453c b1ae df3a 24c9 05bc
00000230: 0400 0080 0400 0080 0400 0080 0400 0080
00000240: 0400 0000 0400 0000 0400 0000 0400 0000
00000250: 5cda ca3c f10f 8e3c 5d2d a93a 422d 8d3a
00000260: ce07 093c 7cda fdba d00a a43a 3e7f 203c
00000270: b8b4 173d 5762 b93c ee6f 963a 3e55 bd3b
00000280: 50f4 cf3c 8361 753c dfc1 be39 58d8 5a3a
00000290: 20a4 89bc 09e9 61bc 3d02 beb9 c872 c239
000002a0: bb89 18bc 9459 f23c ef9a e93a 2162 15bd
000002b0: 0400 0000 0400 0000 0400 0000 0400 0080
000002c0: e9ba a8b9 2fa8 81b9 470a 40b8 74ad 4cb9
000002d0: ae48 143c 4f10 b13b b907 8e39 1aa3 cc3a
000002e0: 2780 3e3c 67dc 0e3c dfc6 fbb9 0b68 acbb
000002f0: 6ea2 8d3b ad52 b53b 0fbe 3e3a db45 09b8
00000300: ea8e a33c e480 4b3c 18ae 313a e8f9 3a3b
00000310: 8db9 02bd 71c7 dcbc 26de cc39 c7eb 093c
00000320: b709 c83a 2b1e ab3a 47df e539 10da 5a3b
00000330: e1e6 d53b 488e 033c 869e 19bb b9ef 8dbc
00000340: 6eba c33d c859 7a3d 47f0 8a3b 68ed 263c
00000350: 3d2d 4b3b db75 20ba 2dba 43b6 3e51 e53a
00000360: 706c f7bc 2836 cdbc fe1d a238 d537 b93b
00000370: 84d3 17bd c613 f8bc b007 ec39 7520 093c
00000380: 0000 0000 0000 0000 0000 0000 0000 0000
00000390: a235 8dba 16df 37bc 5286 ef39 9144 213c
000003a0: 1ae1 8dbc da0c 60bc 287c 2b3a 9939 bb3b
000003b0: 160b cbbc fa85 99bc e307 eeba 6d26 00bc
000003c0: 2398 f3bc c0f8 c8bc d794 d9b9 9487 1b3b
000003d0: 8d92 08bd bc0f eabc e839 ce38 45f9 bd3b
000003e0: 9c1e 823b 7f95 5439 b794 383a 8090 583b
000003f0: 39aa 9b3b 8b68 47bb 0b26 153a 6684 ca3b

exp_avg_sq f4 [64, 4]
0.15811661 0.087936796 0.0003971825 0.0059687584 2.1673046e-18 2.4951285e-16 6.7187944e-18 7.075585e-16
0.09556964 0.052956436 0.00024781885 0.0039528674 0.10991445 0.06247766 0.0002963972 0.004148737
0.21094951 0.12185519 0.0005741499 0.00826759 6.497094e-05 0.0006085121 0.000114701994 0.0011978641
0.10392542 0.09214827 0.0007114839 0.022512518 0.023480197 0.030896613 0.0005117122 0.009732593
0.14044677 0.07979288 0.00037643505 0.005705744 0.27151775 0.15238005 0.0007414826 0.010052564
0.4784868 0.2557736 0.0011422682 0.013768983 0.0616417 0.048896793 0.00044388624 0.01325069
0.03066782 0.03946116 0.0008018068 0.0022991037 3.2641934e-16 3.717784e-15 8.467401e-17 5.5198957e-17
0.24817306 0.13827394 0.00068085984 0.009462614 0.0 0.0 0.0 0.0
0.2644817 0.15039106 0.00074038026 0.010602093 0.596681 0.3400788 0.0016788229 0.026265983
0.3790619 0.23273271 0.0011705057 0.017429924 1.580299 0.860667 0.0037132478 0.018849183
0.0025232774 0.004558172 3.484743e-05 0.005571488 0.08760343 0.04883995 0.00024623648 0.0034966243
0.6550088 0.37306365 0.0018259594 0.027361121 0.30616647 0.16262536 0.00058056426 0.0018956382
0.26513147 0.143155 0.00066265394 0.009153019 0.002139792 0.0030523425 5.523897e-05 0.0005209495
0.01636474 0.023672258 0.000405065 0.0008883513 0.010784825 0.013245893 0.00026009735 0.0041493857
0.04132188 0.0525945 0.0009478941 0.013906881 0.014542134 0.020410234 0.00038867374 0.0010428312
0.008800748 0.011922157 0.00023837625 0.0007612314 0.11932036 0.10071192 0.0007111537 0.019987624
0.22299848 0.124257155 0.00058944785 0.008986171 0.0024677096 0.003916983 4.341192e-05 0.0028465001
0.023975547 0.02957343 0.0005505019 0.007889703 1.2006331e-12 1.8415256e-12 3.5847613e-14 1.1448057e-14
0.013242722 0.011216394 0.00115329 0.010722909 0.628558 0.32628575 0.0010164636 0.0029045981
0.020338003 0.030779703 0.0004101003 0.014371515 0.2987773 0.1622355 0.00060775084 0.003692362
0.30620226 0.16842769 0.00068777 0.0053706975 0.12476598 0.06981207 0.00035387158 0.004094344
0.036651134 0.04711163 0.0008234455 0.01400255 6.247955e-14 3.1398583e-14 1.0376593e-17 2.4160791e-15
0.00045235278 0.0006055586 1.2920896e-05 0.0001945329 0.021747617 0.012240802 4.6100726e-05 0.00036348295
0.08891632 0.055840656 0.00023177174 0.0037798143 0.008536022 0.01267964 0.00023142649 0.00050503504
0.11341755 0.061184675 0.00024078644 0.0015023625 0.5572131 0.31415933 0.0015380157 0.023393834
0.0036381173 0.004763343 0.00011875347 0.0006011621 0.35663158 0.18079634 0.0009318649 0.017267631
2.063337 0.991829 0.0044493387 0.021380028 0.0019736132 0.0022764828 4.54662e-05 0.001893476
0.41138318 0.23874915 0.0011709112 0.017884254 0.6963479 0.3964628 0.0019281256 0.027912822
0.0 0.0 0.0 0.0 0.057979774 0.06681682 0.000730393 0.024313705
0.21091951 0.117176384 0.00056106935 0.008368885 0.05035239 0.03701404 0.00023061376 0.0030669533
0.3120325 0.18877804 0.00093817525 0.013992344 0.63844687 0.3774604 0.001881764 0.0288144
0.011459966 0.023765711 0.00040422156 0.009150881 0.013749897 0.020678291 0.00026783103 0.007579189
00000000: 52e9 213e 3518 b43d ef3c d039 9395 c33b
00000010: 3aeb 1f22 99d5 8f25 38e1 f722 9af0 4b26
00000020: 04ba c33d d9e8 583d afed 8139 0e87 813b
00000030: d41a e13d 93e8 7f3d c265 9b39 21f2 873b
00000040: 2603 583e 378f f93d 8c82 163a c974 073c
00000050: 0241 8838 8e84 1f3a 2a8c f038 a601 9d3a
00000060: dad6 d43d 3bb8 bc3d e082 3a3a 2c6c b83c
00000070: 8b59 c03c e51a fd3c 6d24 063a 7475 1f3c
00000080: 47d1 0f3e 736a a33d 425c c539 40f7 ba3b
00000090: 6004 8b3e 8409 1c3e 0e60 423a 82b3 243c
000000a0: 39fc f43e c2f4 823e 29b8 953a 4d97 613c
000000b0: 027c 7c3d 0148 483d 67b9 e839 6c19 593c
000000c0: 143b fb3c 06a2 213d 5830 523a 8fac 163b
000000d0: fe2a bc25 81f2 8527 b73e c324 6d8f 7e24
000000e0: 1421 7e3e af97 0d3e bb7b 323a 1409 1b3c
000000f0: 0000 0000 0000 0000 0000 0000 0000 0000
00000100: 256a 873e 1d00 1a3e 1416 423a 67b4 2d3c
00000110: 16c0 183f cf1e ae3e f30b dc3a c22b d73c
00000120: 6714 c23e 7c51 6e3e a76b 993a 33c9 8e3c
00000130: 3d47 ca3f ac54 5c3f f659 733b 9a69 9a3c
00000140: 925d 253b b85c 953b 2529 1238 0791 b63b
00000150: 6d69 b33d 660c 483d 4d19 8139 9f27 653b
00000160: a8ae 273f 3302 bf3e 0855 ef3a 6e24 e03c
00000170: dac1 9c3e 4387 263e 0231 183a 1077 f83a
00000180: 50bf 873e 3997 123e f4b5 2d3a 8bf6 153c
00000190: c13b 0c3b cf09 483b 64b0 6738 5490 083a
000001a0: 590f 863c 53ec c13c e75e d439 3fe0 683a
000001b0: d6b2 303c 4d05 593c ad5d 8839 92f7 873b
000001c0: 2241 293d 556d 573d 197c 783a b0d9 633c
000001d0: 2142 6e3c 5d33 a73c e8c6 cb39 9caf 883a
000001e0: 0331 103c 2755 433c a3f4 7939 608d 473a
000001f0: 3c5e f43d 0d42 ce3d b86c 3a3a 16bd a33c
00000200: b759 643e 897a fe3d 2d85 1a3a bc3a 133c
00000210: 4cb9 213b 095a 803b 3215 3638 598c 3a3b
00000220: 5e68 c43c fa43 f23c 8f4f 103a d043 013c
00000230: 5ef9 a82b fa95 012c 7c71 2129 d83a 4e28
00000240: 00f8 583c f7c4 373c fe29 973a 24af 2f3c
00000250: 2de9 203f ed0e a73e dc3a 853a 125b 3e3b
00000260: e29b a63c b725 fc3c bb02 d739 8176 6b3c
00000270: 57f9 983e 1021 263e 7851 1f3a 8efb 713b
00000280: 8bc6 9c3e 4f78 2c3e 774b 343a adfc af3b
00000290: 4e85 ff3d a1f9 8e3d d787 b939 d929 863b
000002a0: 801f 163d 20f8 403d 7edc 573a f46a 653c
000002b0: 02b1 8c29 1a68 0d29 136a 3f23 cb18 2e27
000002c0: c329 ed39 5abe 1e3a d3c6 5837 87fb 4b39
000002d0: 0f28 b23c a58d 483c 475c 4138 db91 be39
000002e0: c219 b63d 2cb9 643d c107 7339 c3b6 773b
000002f0: acda 0b3c 44be 4f3c 13ab 7239 5464 043a
00000300: 7647 e83d c89c 7a3d 9e7b 7c39 ecea c43a
00000310: 85a5 0e3f 7ed9 a03e 3e97 c93a 6da4 bf3c
00000320: 7b6d 6e3b d115 9c3b 490b f938 4e97 1d3a
00000330: 6a98 b63e ad22 393e 6548 743a d974 8d3c
00000340: b70d 0440 81e8 7d3f c2cb 913b 2b25 af3c
00000350: bc57 013b 0b31 153b f6b2 3e38 832e f83a
00000360: d1a0 d23e a87a 743e 4379 993a 0082 923c
00000370: db43 323f 2cfd ca3e 29b9 fc3a 6ea9 e43c
00000380: 0000 0000 0000 0000 0000 0000 0000 0000
00000390: 337c 6d3d 42d7 883d d877 3f3a 892d c73c
000003a0: 49fb 573e 2cfa ef3d ba14 133a a61d 093c
000003b0: 4f3e 4e3d 099c 173d e9d0 7139 f0fe 483b
000003c0: b9c2 9f3e 084f 413e e0ef 753a 2540 653c
000003d0: 4171 233f 7d42 c13e 86a5 f63a 2d0c ec3c
000003e0: 95c2 3b3c 4fb0 c23c b3ed d339 94ed 153c
000003f0: 3f47 613c 8565 a93c ac6b 8c39 d85a f83b
